<?xml version="1.0" ?>
<net name="facial-landmarks-35-adas-0002" version="10">
	<layers>
		<layer id="0" name="data" type="Parameter" version="opset1">
			<data element_type="f32" shape="1, 3, 60, 60"/>
			<output>
				<port id="0" names="data" precision="FP32">
					<dim>1</dim>
					<dim>3</dim>
					<dim>60</dim>
					<dim>60</dim>
				</port>
			</output>
		</layer>
		<layer id="1" name="data_mul_750616223" type="Const" version="opset1">
			<data element_type="f32" offset="0" shape="1, 3, 1, 1" size="12"/>
			<output>
				<port id="0" precision="FP32">
					<dim>1</dim>
					<dim>3</dim>
					<dim>1</dim>
					<dim>1</dim>
				</port>
			</output>
		</layer>
		<layer id="2" name="data/scale/Fused_Mul_" type="Multiply" version="opset1">
			<data auto_broadcast="numpy"/>
			<input>
				<port id="0" precision="FP32">
					<dim>1</dim>
					<dim>3</dim>
					<dim>60</dim>
					<dim>60</dim>
				</port>
				<port id="1" precision="FP32">
					<dim>1</dim>
					<dim>3</dim>
					<dim>1</dim>
					<dim>1</dim>
				</port>
			</input>
			<output>
				<port id="2" precision="FP32">
					<dim>1</dim>
					<dim>3</dim>
					<dim>60</dim>
					<dim>60</dim>
				</port>
			</output>
		</layer>
		<layer id="3" name="data_add_750816187" type="Const" version="opset1">
			<data element_type="f32" offset="12" shape="1, 3, 1, 1" size="12"/>
			<output>
				<port id="0" precision="FP32">
					<dim>1</dim>
					<dim>3</dim>
					<dim>1</dim>
					<dim>1</dim>
				</port>
			</output>
		</layer>
		<layer id="4" name="data/mean/Fused_Add_" type="Add" version="opset1">
			<data auto_broadcast="numpy"/>
			<input>
				<port id="0" precision="FP32">
					<dim>1</dim>
					<dim>3</dim>
					<dim>60</dim>
					<dim>60</dim>
				</port>
				<port id="1" precision="FP32">
					<dim>1</dim>
					<dim>3</dim>
					<dim>1</dim>
					<dim>1</dim>
				</port>
			</input>
			<output>
				<port id="2" names="data" precision="FP32">
					<dim>1</dim>
					<dim>3</dim>
					<dim>60</dim>
					<dim>60</dim>
				</port>
			</output>
		</layer>
		<layer id="5" name="bn1/mean/Fused_Mul__copy" type="Const" version="opset1">
			<data element_type="f32" offset="24" shape="16, 3, 3, 3" size="1728"/>
			<output>
				<port id="0" precision="FP32">
					<dim>16</dim>
					<dim>3</dim>
					<dim>3</dim>
					<dim>3</dim>
				</port>
			</output>
		</layer>
		<layer id="6" name="conv1/WithoutBiases" type="Convolution" version="opset1">
			<data auto_pad="explicit" dilations="1, 1" pads_begin="1, 1" pads_end="1, 1" strides="1, 1"/>
			<input>
				<port id="0" precision="FP32">
					<dim>1</dim>
					<dim>3</dim>
					<dim>60</dim>
					<dim>60</dim>
				</port>
				<port id="1" precision="FP32">
					<dim>16</dim>
					<dim>3</dim>
					<dim>3</dim>
					<dim>3</dim>
				</port>
			</input>
			<output>
				<port id="2" precision="FP32">
					<dim>1</dim>
					<dim>16</dim>
					<dim>60</dim>
					<dim>60</dim>
				</port>
			</output>
		</layer>
		<layer id="7" name="data_add_75117516" type="Const" version="opset1">
			<data element_type="f32" offset="1752" shape="1, 16, 1, 1" size="64"/>
			<output>
				<port id="0" precision="FP32">
					<dim>1</dim>
					<dim>16</dim>
					<dim>1</dim>
					<dim>1</dim>
				</port>
			</output>
		</layer>
		<layer id="8" name="conv1/Fused_Add_" type="Add" version="opset1">
			<data auto_broadcast="numpy"/>
			<input>
				<port id="0" precision="FP32">
					<dim>1</dim>
					<dim>16</dim>
					<dim>60</dim>
					<dim>60</dim>
				</port>
				<port id="1" precision="FP32">
					<dim>1</dim>
					<dim>16</dim>
					<dim>1</dim>
					<dim>1</dim>
				</port>
			</input>
			<output>
				<port id="2" names="conv1" precision="FP32">
					<dim>1</dim>
					<dim>16</dim>
					<dim>60</dim>
					<dim>60</dim>
				</port>
			</output>
		</layer>
		<layer id="9" name="relu_conv1" type="ReLU" version="opset1">
			<input>
				<port id="0" precision="FP32">
					<dim>1</dim>
					<dim>16</dim>
					<dim>60</dim>
					<dim>60</dim>
				</port>
			</input>
			<output>
				<port id="1" names="relu1" precision="FP32">
					<dim>1</dim>
					<dim>16</dim>
					<dim>60</dim>
					<dim>60</dim>
				</port>
			</output>
		</layer>
		<layer id="10" name="444" type="Const" version="opset1">
			<data element_type="f32" offset="1816" shape="16, 16, 3, 3" size="9216"/>
			<output>
				<port id="0" precision="FP32">
					<dim>16</dim>
					<dim>16</dim>
					<dim>3</dim>
					<dim>3</dim>
				</port>
			</output>
		</layer>
		<layer id="11" name="pool1/WithoutBiases" type="Convolution" version="opset1">
			<data auto_pad="explicit" dilations="1, 1" pads_begin="1, 1" pads_end="1, 1" strides="2, 2"/>
			<input>
				<port id="0" precision="FP32">
					<dim>1</dim>
					<dim>16</dim>
					<dim>60</dim>
					<dim>60</dim>
				</port>
				<port id="1" precision="FP32">
					<dim>16</dim>
					<dim>16</dim>
					<dim>3</dim>
					<dim>3</dim>
				</port>
			</input>
			<output>
				<port id="2" precision="FP32">
					<dim>1</dim>
					<dim>16</dim>
					<dim>30</dim>
					<dim>30</dim>
				</port>
			</output>
		</layer>
		<layer id="12" name="pool1/Dims4609" type="Const" version="opset1">
			<data element_type="f32" offset="11032" shape="1, 16, 1, 1" size="64"/>
			<output>
				<port id="0" precision="FP32">
					<dim>1</dim>
					<dim>16</dim>
					<dim>1</dim>
					<dim>1</dim>
				</port>
			</output>
		</layer>
		<layer id="13" name="pool1" type="Add" version="opset1">
			<data auto_broadcast="numpy"/>
			<input>
				<port id="0" precision="FP32">
					<dim>1</dim>
					<dim>16</dim>
					<dim>30</dim>
					<dim>30</dim>
				</port>
				<port id="1" precision="FP32">
					<dim>1</dim>
					<dim>16</dim>
					<dim>1</dim>
					<dim>1</dim>
				</port>
			</input>
			<output>
				<port id="2" names="pool1" precision="FP32">
					<dim>1</dim>
					<dim>16</dim>
					<dim>30</dim>
					<dim>30</dim>
				</port>
			</output>
		</layer>
		<layer id="14" name="bn2/mean/Fused_Mul__copy" type="Const" version="opset1">
			<data element_type="f32" offset="11096" shape="32, 16, 3, 3" size="18432"/>
			<output>
				<port id="0" precision="FP32">
					<dim>32</dim>
					<dim>16</dim>
					<dim>3</dim>
					<dim>3</dim>
				</port>
			</output>
		</layer>
		<layer id="15" name="conv2/WithoutBiases" type="Convolution" version="opset1">
			<data auto_pad="explicit" dilations="1, 1" pads_begin="1, 1" pads_end="1, 1" strides="1, 1"/>
			<input>
				<port id="0" precision="FP32">
					<dim>1</dim>
					<dim>16</dim>
					<dim>30</dim>
					<dim>30</dim>
				</port>
				<port id="1" precision="FP32">
					<dim>32</dim>
					<dim>16</dim>
					<dim>3</dim>
					<dim>3</dim>
				</port>
			</input>
			<output>
				<port id="2" precision="FP32">
					<dim>1</dim>
					<dim>32</dim>
					<dim>30</dim>
					<dim>30</dim>
				</port>
			</output>
		</layer>
		<layer id="16" name="data_add_75197524" type="Const" version="opset1">
			<data element_type="f32" offset="29528" shape="1, 32, 1, 1" size="128"/>
			<output>
				<port id="0" precision="FP32">
					<dim>1</dim>
					<dim>32</dim>
					<dim>1</dim>
					<dim>1</dim>
				</port>
			</output>
		</layer>
		<layer id="17" name="conv2/Fused_Add_" type="Add" version="opset1">
			<data auto_broadcast="numpy"/>
			<input>
				<port id="0" precision="FP32">
					<dim>1</dim>
					<dim>32</dim>
					<dim>30</dim>
					<dim>30</dim>
				</port>
				<port id="1" precision="FP32">
					<dim>1</dim>
					<dim>32</dim>
					<dim>1</dim>
					<dim>1</dim>
				</port>
			</input>
			<output>
				<port id="2" names="conv2" precision="FP32">
					<dim>1</dim>
					<dim>32</dim>
					<dim>30</dim>
					<dim>30</dim>
				</port>
			</output>
		</layer>
		<layer id="18" name="relu_conv2" type="ReLU" version="opset1">
			<input>
				<port id="0" precision="FP32">
					<dim>1</dim>
					<dim>32</dim>
					<dim>30</dim>
					<dim>30</dim>
				</port>
			</input>
			<output>
				<port id="1" names="relu2" precision="FP32">
					<dim>1</dim>
					<dim>32</dim>
					<dim>30</dim>
					<dim>30</dim>
				</port>
			</output>
		</layer>
		<layer id="19" name="362" type="Const" version="opset1">
			<data element_type="f32" offset="29656" shape="16, 32, 3, 3" size="18432"/>
			<output>
				<port id="0" precision="FP32">
					<dim>16</dim>
					<dim>32</dim>
					<dim>3</dim>
					<dim>3</dim>
				</port>
			</output>
		</layer>
		<layer id="20" name="pool2/WithoutBiases" type="Convolution" version="opset1">
			<data auto_pad="explicit" dilations="1, 1" pads_begin="1, 1" pads_end="1, 1" strides="2, 2"/>
			<input>
				<port id="0" precision="FP32">
					<dim>1</dim>
					<dim>32</dim>
					<dim>30</dim>
					<dim>30</dim>
				</port>
				<port id="1" precision="FP32">
					<dim>16</dim>
					<dim>32</dim>
					<dim>3</dim>
					<dim>3</dim>
				</port>
			</input>
			<output>
				<port id="2" precision="FP32">
					<dim>1</dim>
					<dim>16</dim>
					<dim>15</dim>
					<dim>15</dim>
				</port>
			</output>
		</layer>
		<layer id="21" name="pool2/Dims4399" type="Const" version="opset1">
			<data element_type="f32" offset="48088" shape="1, 16, 1, 1" size="64"/>
			<output>
				<port id="0" precision="FP32">
					<dim>1</dim>
					<dim>16</dim>
					<dim>1</dim>
					<dim>1</dim>
				</port>
			</output>
		</layer>
		<layer id="22" name="pool2" type="Add" version="opset1">
			<data auto_broadcast="numpy"/>
			<input>
				<port id="0" precision="FP32">
					<dim>1</dim>
					<dim>16</dim>
					<dim>15</dim>
					<dim>15</dim>
				</port>
				<port id="1" precision="FP32">
					<dim>1</dim>
					<dim>16</dim>
					<dim>1</dim>
					<dim>1</dim>
				</port>
			</input>
			<output>
				<port id="2" names="pool2" precision="FP32">
					<dim>1</dim>
					<dim>16</dim>
					<dim>15</dim>
					<dim>15</dim>
				</port>
			</output>
		</layer>
		<layer id="23" name="bn3/mean/Fused_Mul__copy" type="Const" version="opset1">
			<data element_type="f32" offset="48152" shape="64, 16, 3, 3" size="36864"/>
			<output>
				<port id="0" precision="FP32">
					<dim>64</dim>
					<dim>16</dim>
					<dim>3</dim>
					<dim>3</dim>
				</port>
			</output>
		</layer>
		<layer id="24" name="conv3/WithoutBiases" type="Convolution" version="opset1">
			<data auto_pad="explicit" dilations="1, 1" pads_begin="1, 1" pads_end="1, 1" strides="1, 1"/>
			<input>
				<port id="0" precision="FP32">
					<dim>1</dim>
					<dim>16</dim>
					<dim>15</dim>
					<dim>15</dim>
				</port>
				<port id="1" precision="FP32">
					<dim>64</dim>
					<dim>16</dim>
					<dim>3</dim>
					<dim>3</dim>
				</port>
			</input>
			<output>
				<port id="2" precision="FP32">
					<dim>1</dim>
					<dim>64</dim>
					<dim>15</dim>
					<dim>15</dim>
				</port>
			</output>
		</layer>
		<layer id="25" name="data_add_75277532" type="Const" version="opset1">
			<data element_type="f32" offset="85016" shape="1, 64, 1, 1" size="256"/>
			<output>
				<port id="0" precision="FP32">
					<dim>1</dim>
					<dim>64</dim>
					<dim>1</dim>
					<dim>1</dim>
				</port>
			</output>
		</layer>
		<layer id="26" name="conv3/Fused_Add_" type="Add" version="opset1">
			<data auto_broadcast="numpy"/>
			<input>
				<port id="0" precision="FP32">
					<dim>1</dim>
					<dim>64</dim>
					<dim>15</dim>
					<dim>15</dim>
				</port>
				<port id="1" precision="FP32">
					<dim>1</dim>
					<dim>64</dim>
					<dim>1</dim>
					<dim>1</dim>
				</port>
			</input>
			<output>
				<port id="2" names="conv3" precision="FP32">
					<dim>1</dim>
					<dim>64</dim>
					<dim>15</dim>
					<dim>15</dim>
				</port>
			</output>
		</layer>
		<layer id="27" name="relu_conv3" type="ReLU" version="opset1">
			<input>
				<port id="0" precision="FP32">
					<dim>1</dim>
					<dim>64</dim>
					<dim>15</dim>
					<dim>15</dim>
				</port>
			</input>
			<output>
				<port id="1" names="relu3" precision="FP32">
					<dim>1</dim>
					<dim>64</dim>
					<dim>15</dim>
					<dim>15</dim>
				</port>
			</output>
		</layer>
		<layer id="28" name="366" type="Const" version="opset1">
			<data element_type="f32" offset="85272" shape="32, 64, 3, 3" size="73728"/>
			<output>
				<port id="0" precision="FP32">
					<dim>32</dim>
					<dim>64</dim>
					<dim>3</dim>
					<dim>3</dim>
				</port>
			</output>
		</layer>
		<layer id="29" name="pool3/WithoutBiases" type="Convolution" version="opset1">
			<data auto_pad="explicit" dilations="1, 1" pads_begin="1, 1" pads_end="1, 1" strides="2, 2"/>
			<input>
				<port id="0" precision="FP32">
					<dim>1</dim>
					<dim>64</dim>
					<dim>15</dim>
					<dim>15</dim>
				</port>
				<port id="1" precision="FP32">
					<dim>32</dim>
					<dim>64</dim>
					<dim>3</dim>
					<dim>3</dim>
				</port>
			</input>
			<output>
				<port id="2" precision="FP32">
					<dim>1</dim>
					<dim>32</dim>
					<dim>8</dim>
					<dim>8</dim>
				</port>
			</output>
		</layer>
		<layer id="30" name="pool3/Dims4849" type="Const" version="opset1">
			<data element_type="f32" offset="159000" shape="1, 32, 1, 1" size="128"/>
			<output>
				<port id="0" precision="FP32">
					<dim>1</dim>
					<dim>32</dim>
					<dim>1</dim>
					<dim>1</dim>
				</port>
			</output>
		</layer>
		<layer id="31" name="pool3" type="Add" version="opset1">
			<data auto_broadcast="numpy"/>
			<input>
				<port id="0" precision="FP32">
					<dim>1</dim>
					<dim>32</dim>
					<dim>8</dim>
					<dim>8</dim>
				</port>
				<port id="1" precision="FP32">
					<dim>1</dim>
					<dim>32</dim>
					<dim>1</dim>
					<dim>1</dim>
				</port>
			</input>
			<output>
				<port id="2" names="pool3" precision="FP32">
					<dim>1</dim>
					<dim>32</dim>
					<dim>8</dim>
					<dim>8</dim>
				</port>
			</output>
		</layer>
		<layer id="32" name="bn4/mean/Fused_Mul__copy" type="Const" version="opset1">
			<data element_type="f32" offset="159128" shape="128, 32, 3, 3" size="147456"/>
			<output>
				<port id="0" precision="FP32">
					<dim>128</dim>
					<dim>32</dim>
					<dim>3</dim>
					<dim>3</dim>
				</port>
			</output>
		</layer>
		<layer id="33" name="conv4/WithoutBiases" type="Convolution" version="opset1">
			<data auto_pad="explicit" dilations="1, 1" pads_begin="1, 1" pads_end="1, 1" strides="1, 1"/>
			<input>
				<port id="0" precision="FP32">
					<dim>1</dim>
					<dim>32</dim>
					<dim>8</dim>
					<dim>8</dim>
				</port>
				<port id="1" precision="FP32">
					<dim>128</dim>
					<dim>32</dim>
					<dim>3</dim>
					<dim>3</dim>
				</port>
			</input>
			<output>
				<port id="2" precision="FP32">
					<dim>1</dim>
					<dim>128</dim>
					<dim>8</dim>
					<dim>8</dim>
				</port>
			</output>
		</layer>
		<layer id="34" name="data_add_75357540" type="Const" version="opset1">
			<data element_type="f32" offset="306584" shape="1, 128, 1, 1" size="512"/>
			<output>
				<port id="0" precision="FP32">
					<dim>1</dim>
					<dim>128</dim>
					<dim>1</dim>
					<dim>1</dim>
				</port>
			</output>
		</layer>
		<layer id="35" name="conv4/Fused_Add_" type="Add" version="opset1">
			<data auto_broadcast="numpy"/>
			<input>
				<port id="0" precision="FP32">
					<dim>1</dim>
					<dim>128</dim>
					<dim>8</dim>
					<dim>8</dim>
				</port>
				<port id="1" precision="FP32">
					<dim>1</dim>
					<dim>128</dim>
					<dim>1</dim>
					<dim>1</dim>
				</port>
			</input>
			<output>
				<port id="2" names="conv4" precision="FP32">
					<dim>1</dim>
					<dim>128</dim>
					<dim>8</dim>
					<dim>8</dim>
				</port>
			</output>
		</layer>
		<layer id="36" name="relu_conv4" type="ReLU" version="opset1">
			<input>
				<port id="0" precision="FP32">
					<dim>1</dim>
					<dim>128</dim>
					<dim>8</dim>
					<dim>8</dim>
				</port>
			</input>
			<output>
				<port id="1" names="relu4" precision="FP32">
					<dim>1</dim>
					<dim>128</dim>
					<dim>8</dim>
					<dim>8</dim>
				</port>
			</output>
		</layer>
		<layer id="37" name="298" type="Const" version="opset1">
			<data element_type="f32" offset="307096" shape="64, 128, 3, 3" size="294912"/>
			<output>
				<port id="0" precision="FP32">
					<dim>64</dim>
					<dim>128</dim>
					<dim>3</dim>
					<dim>3</dim>
				</port>
			</output>
		</layer>
		<layer id="38" name="pool4/WithoutBiases" type="Convolution" version="opset1">
			<data auto_pad="explicit" dilations="1, 1" pads_begin="0, 0" pads_end="0, 0" strides="2, 2"/>
			<input>
				<port id="0" precision="FP32">
					<dim>1</dim>
					<dim>128</dim>
					<dim>8</dim>
					<dim>8</dim>
				</port>
				<port id="1" precision="FP32">
					<dim>64</dim>
					<dim>128</dim>
					<dim>3</dim>
					<dim>3</dim>
				</port>
			</input>
			<output>
				<port id="2" precision="FP32">
					<dim>1</dim>
					<dim>64</dim>
					<dim>3</dim>
					<dim>3</dim>
				</port>
			</output>
		</layer>
		<layer id="39" name="pool4/Dims4525" type="Const" version="opset1">
			<data element_type="f32" offset="602008" shape="1, 64, 1, 1" size="256"/>
			<output>
				<port id="0" precision="FP32">
					<dim>1</dim>
					<dim>64</dim>
					<dim>1</dim>
					<dim>1</dim>
				</port>
			</output>
		</layer>
		<layer id="40" name="pool4" type="Add" version="opset1">
			<data auto_broadcast="numpy"/>
			<input>
				<port id="0" precision="FP32">
					<dim>1</dim>
					<dim>64</dim>
					<dim>3</dim>
					<dim>3</dim>
				</port>
				<port id="1" precision="FP32">
					<dim>1</dim>
					<dim>64</dim>
					<dim>1</dim>
					<dim>1</dim>
				</port>
			</input>
			<output>
				<port id="2" names="pool4" precision="FP32">
					<dim>1</dim>
					<dim>64</dim>
					<dim>3</dim>
					<dim>3</dim>
				</port>
			</output>
		</layer>
		<layer id="41" name="bn5/mean/Fused_Mul__copy" type="Const" version="opset1">
			<data element_type="f32" offset="602264" shape="256, 64, 3, 3" size="589824"/>
			<output>
				<port id="0" precision="FP32">
					<dim>256</dim>
					<dim>64</dim>
					<dim>3</dim>
					<dim>3</dim>
				</port>
			</output>
		</layer>
		<layer id="42" name="conv5/WithoutBiases" type="Convolution" version="opset1">
			<data auto_pad="explicit" dilations="1, 1" pads_begin="1, 1" pads_end="1, 1" strides="1, 1"/>
			<input>
				<port id="0" precision="FP32">
					<dim>1</dim>
					<dim>64</dim>
					<dim>3</dim>
					<dim>3</dim>
				</port>
				<port id="1" precision="FP32">
					<dim>256</dim>
					<dim>64</dim>
					<dim>3</dim>
					<dim>3</dim>
				</port>
			</input>
			<output>
				<port id="2" precision="FP32">
					<dim>1</dim>
					<dim>256</dim>
					<dim>3</dim>
					<dim>3</dim>
				</port>
			</output>
		</layer>
		<layer id="43" name="data_add_75437548" type="Const" version="opset1">
			<data element_type="f32" offset="1192088" shape="1, 256, 1, 1" size="1024"/>
			<output>
				<port id="0" precision="FP32">
					<dim>1</dim>
					<dim>256</dim>
					<dim>1</dim>
					<dim>1</dim>
				</port>
			</output>
		</layer>
		<layer id="44" name="conv5/Fused_Add_" type="Add" version="opset1">
			<data auto_broadcast="numpy"/>
			<input>
				<port id="0" precision="FP32">
					<dim>1</dim>
					<dim>256</dim>
					<dim>3</dim>
					<dim>3</dim>
				</port>
				<port id="1" precision="FP32">
					<dim>1</dim>
					<dim>256</dim>
					<dim>1</dim>
					<dim>1</dim>
				</port>
			</input>
			<output>
				<port id="2" names="conv5" precision="FP32">
					<dim>1</dim>
					<dim>256</dim>
					<dim>3</dim>
					<dim>3</dim>
				</port>
			</output>
		</layer>
		<layer id="45" name="relu_conv5" type="ReLU" version="opset1">
			<input>
				<port id="0" precision="FP32">
					<dim>1</dim>
					<dim>256</dim>
					<dim>3</dim>
					<dim>3</dim>
				</port>
			</input>
			<output>
				<port id="1" names="relu5" precision="FP32">
					<dim>1</dim>
					<dim>256</dim>
					<dim>3</dim>
					<dim>3</dim>
				</port>
			</output>
		</layer>
		<layer id="46" name="402" type="Const" version="opset1">
			<data element_type="f32" offset="1193112" shape="512, 256, 3, 3" size="4718592"/>
			<output>
				<port id="0" precision="FP32">
					<dim>512</dim>
					<dim>256</dim>
					<dim>3</dim>
					<dim>3</dim>
				</port>
			</output>
		</layer>
		<layer id="47" name="conv_fm/WithoutBiases" type="Convolution" version="opset1">
			<data auto_pad="explicit" dilations="1, 1" pads_begin="0, 0" pads_end="0, 0" strides="1, 1"/>
			<input>
				<port id="0" precision="FP32">
					<dim>1</dim>
					<dim>256</dim>
					<dim>3</dim>
					<dim>3</dim>
				</port>
				<port id="1" precision="FP32">
					<dim>512</dim>
					<dim>256</dim>
					<dim>3</dim>
					<dim>3</dim>
				</port>
			</input>
			<output>
				<port id="2" precision="FP32">
					<dim>1</dim>
					<dim>512</dim>
					<dim>1</dim>
					<dim>1</dim>
				</port>
			</output>
		</layer>
		<layer id="48" name="conv_fm/Dims4447" type="Const" version="opset1">
			<data element_type="f32" offset="5911704" shape="1, 512, 1, 1" size="2048"/>
			<output>
				<port id="0" precision="FP32">
					<dim>1</dim>
					<dim>512</dim>
					<dim>1</dim>
					<dim>1</dim>
				</port>
			</output>
		</layer>
		<layer id="49" name="conv_fm" type="Add" version="opset1">
			<data auto_broadcast="numpy"/>
			<input>
				<port id="0" precision="FP32">
					<dim>1</dim>
					<dim>512</dim>
					<dim>1</dim>
					<dim>1</dim>
				</port>
				<port id="1" precision="FP32">
					<dim>1</dim>
					<dim>512</dim>
					<dim>1</dim>
					<dim>1</dim>
				</port>
			</input>
			<output>
				<port id="2" names="conv_fm" precision="FP32">
					<dim>1</dim>
					<dim>512</dim>
					<dim>1</dim>
					<dim>1</dim>
				</port>
			</output>
		</layer>
		<layer id="50" name="bn/landmarks_conv_leye_corner/mean/Fused_Mul__copy" type="Const" version="opset1">
			<data element_type="f32" offset="5913752" shape="256, 512, 1, 1" size="524288"/>
			<output>
				<port id="0" precision="FP32">
					<dim>256</dim>
					<dim>512</dim>
					<dim>1</dim>
					<dim>1</dim>
				</port>
			</output>
		</layer>
		<layer id="51" name="landmarks_conv_leye_corner/WithoutBiases" type="Convolution" version="opset1">
			<data auto_pad="explicit" dilations="1, 1" pads_begin="0, 0" pads_end="0, 0" strides="1, 1"/>
			<input>
				<port id="0" precision="FP32">
					<dim>1</dim>
					<dim>512</dim>
					<dim>1</dim>
					<dim>1</dim>
				</port>
				<port id="1" precision="FP32">
					<dim>256</dim>
					<dim>512</dim>
					<dim>1</dim>
					<dim>1</dim>
				</port>
			</input>
			<output>
				<port id="2" precision="FP32">
					<dim>1</dim>
					<dim>256</dim>
					<dim>1</dim>
					<dim>1</dim>
				</port>
			</output>
		</layer>
		<layer id="52" name="data_add_75997604" type="Const" version="opset1">
			<data element_type="f32" offset="6438040" shape="1, 256, 1, 1" size="1024"/>
			<output>
				<port id="0" precision="FP32">
					<dim>1</dim>
					<dim>256</dim>
					<dim>1</dim>
					<dim>1</dim>
				</port>
			</output>
		</layer>
		<layer id="53" name="landmarks_conv_leye_corner/Fused_Add_" type="Add" version="opset1">
			<data auto_broadcast="numpy"/>
			<input>
				<port id="0" precision="FP32">
					<dim>1</dim>
					<dim>256</dim>
					<dim>1</dim>
					<dim>1</dim>
				</port>
				<port id="1" precision="FP32">
					<dim>1</dim>
					<dim>256</dim>
					<dim>1</dim>
					<dim>1</dim>
				</port>
			</input>
			<output>
				<port id="2" names="landmarks_conv_leye_corner" precision="FP32">
					<dim>1</dim>
					<dim>256</dim>
					<dim>1</dim>
					<dim>1</dim>
				</port>
			</output>
		</layer>
		<layer id="54" name="relu_leye_corner" type="ReLU" version="opset1">
			<input>
				<port id="0" precision="FP32">
					<dim>1</dim>
					<dim>256</dim>
					<dim>1</dim>
					<dim>1</dim>
				</port>
			</input>
			<output>
				<port id="1" names="landmarks_conv_leye_corner" precision="FP32">
					<dim>1</dim>
					<dim>256</dim>
					<dim>1</dim>
					<dim>1</dim>
				</port>
			</output>
		</layer>
		<layer id="55" name="322" type="Const" version="opset1">
			<data element_type="f32" offset="6439064" shape="60, 256, 1, 1" size="61440"/>
			<output>
				<port id="0" precision="FP32">
					<dim>60</dim>
					<dim>256</dim>
					<dim>1</dim>
					<dim>1</dim>
				</port>
			</output>
		</layer>
		<layer id="56" name="landmarks_fc_leye_corner_x_new/WithoutBiases" type="Convolution" version="opset1">
			<data auto_pad="explicit" dilations="1, 1" pads_begin="0, 0" pads_end="0, 0" strides="1, 1"/>
			<input>
				<port id="0" precision="FP32">
					<dim>1</dim>
					<dim>256</dim>
					<dim>1</dim>
					<dim>1</dim>
				</port>
				<port id="1" precision="FP32">
					<dim>60</dim>
					<dim>256</dim>
					<dim>1</dim>
					<dim>1</dim>
				</port>
			</input>
			<output>
				<port id="2" precision="FP32">
					<dim>1</dim>
					<dim>60</dim>
					<dim>1</dim>
					<dim>1</dim>
				</port>
			</output>
		</layer>
		<layer id="57" name="landmarks_fc_leye_corner_x_new/Dims4531" type="Const" version="opset1">
			<data element_type="f32" offset="6500504" shape="1, 60, 1, 1" size="240"/>
			<output>
				<port id="0" precision="FP32">
					<dim>1</dim>
					<dim>60</dim>
					<dim>1</dim>
					<dim>1</dim>
				</port>
			</output>
		</layer>
		<layer id="58" name="landmarks_fc_leye_corner_x_new" type="Add" version="opset1">
			<data auto_broadcast="numpy"/>
			<input>
				<port id="0" precision="FP32">
					<dim>1</dim>
					<dim>60</dim>
					<dim>1</dim>
					<dim>1</dim>
				</port>
				<port id="1" precision="FP32">
					<dim>1</dim>
					<dim>60</dim>
					<dim>1</dim>
					<dim>1</dim>
				</port>
			</input>
			<output>
				<port id="2" names="landmarks_fc_leye_corner_x_new" precision="FP32">
					<dim>1</dim>
					<dim>60</dim>
					<dim>1</dim>
					<dim>1</dim>
				</port>
			</output>
		</layer>
		<layer id="59" name="softmax_landmarks_leye_corner_x" type="SoftMax" version="opset1">
			<data axis="1"/>
			<input>
				<port id="0" precision="FP32">
					<dim>1</dim>
					<dim>60</dim>
					<dim>1</dim>
					<dim>1</dim>
				</port>
			</input>
			<output>
				<port id="1" names="softmax_landmarks_leye_corner_x" precision="FP32">
					<dim>1</dim>
					<dim>60</dim>
					<dim>1</dim>
					<dim>1</dim>
				</port>
			</output>
		</layer>
		<layer id="60" name="420" type="Const" version="opset1">
			<data element_type="f32" offset="6500744" shape="60, 256, 1, 1" size="61440"/>
			<output>
				<port id="0" precision="FP32">
					<dim>60</dim>
					<dim>256</dim>
					<dim>1</dim>
					<dim>1</dim>
				</port>
			</output>
		</layer>
		<layer id="61" name="landmarks_fc_leye_corner_y_new/WithoutBiases" type="Convolution" version="opset1">
			<data auto_pad="explicit" dilations="1, 1" pads_begin="0, 0" pads_end="0, 0" strides="1, 1"/>
			<input>
				<port id="0" precision="FP32">
					<dim>1</dim>
					<dim>256</dim>
					<dim>1</dim>
					<dim>1</dim>
				</port>
				<port id="1" precision="FP32">
					<dim>60</dim>
					<dim>256</dim>
					<dim>1</dim>
					<dim>1</dim>
				</port>
			</input>
			<output>
				<port id="2" precision="FP32">
					<dim>1</dim>
					<dim>60</dim>
					<dim>1</dim>
					<dim>1</dim>
				</port>
			</output>
		</layer>
		<layer id="62" name="landmarks_fc_leye_corner_y_new/Dims4861" type="Const" version="opset1">
			<data element_type="f32" offset="6562184" shape="1, 60, 1, 1" size="240"/>
			<output>
				<port id="0" precision="FP32">
					<dim>1</dim>
					<dim>60</dim>
					<dim>1</dim>
					<dim>1</dim>
				</port>
			</output>
		</layer>
		<layer id="63" name="landmarks_fc_leye_corner_y_new" type="Add" version="opset1">
			<data auto_broadcast="numpy"/>
			<input>
				<port id="0" precision="FP32">
					<dim>1</dim>
					<dim>60</dim>
					<dim>1</dim>
					<dim>1</dim>
				</port>
				<port id="1" precision="FP32">
					<dim>1</dim>
					<dim>60</dim>
					<dim>1</dim>
					<dim>1</dim>
				</port>
			</input>
			<output>
				<port id="2" names="landmarks_fc_leye_corner_y_new" precision="FP32">
					<dim>1</dim>
					<dim>60</dim>
					<dim>1</dim>
					<dim>1</dim>
				</port>
			</output>
		</layer>
		<layer id="64" name="softmax_landmarks_leye_corner_y" type="SoftMax" version="opset1">
			<data axis="1"/>
			<input>
				<port id="0" precision="FP32">
					<dim>1</dim>
					<dim>60</dim>
					<dim>1</dim>
					<dim>1</dim>
				</port>
			</input>
			<output>
				<port id="1" names="softmax_landmarks_leye_corner_y" precision="FP32">
					<dim>1</dim>
					<dim>60</dim>
					<dim>1</dim>
					<dim>1</dim>
				</port>
			</output>
		</layer>
		<layer id="65" name="414" type="Const" version="opset1">
			<data element_type="f32" offset="6562424" shape="60, 256, 1, 1" size="61440"/>
			<output>
				<port id="0" precision="FP32">
					<dim>60</dim>
					<dim>256</dim>
					<dim>1</dim>
					<dim>1</dim>
				</port>
			</output>
		</layer>
		<layer id="66" name="landmarks_fc_leye_x_new/WithoutBiases" type="Convolution" version="opset1">
			<data auto_pad="explicit" dilations="1, 1" pads_begin="0, 0" pads_end="0, 0" strides="1, 1"/>
			<input>
				<port id="0" precision="FP32">
					<dim>1</dim>
					<dim>256</dim>
					<dim>1</dim>
					<dim>1</dim>
				</port>
				<port id="1" precision="FP32">
					<dim>60</dim>
					<dim>256</dim>
					<dim>1</dim>
					<dim>1</dim>
				</port>
			</input>
			<output>
				<port id="2" precision="FP32">
					<dim>1</dim>
					<dim>60</dim>
					<dim>1</dim>
					<dim>1</dim>
				</port>
			</output>
		</layer>
		<layer id="67" name="landmarks_fc_leye_x_new/Dims4465" type="Const" version="opset1">
			<data element_type="f32" offset="6623864" shape="1, 60, 1, 1" size="240"/>
			<output>
				<port id="0" precision="FP32">
					<dim>1</dim>
					<dim>60</dim>
					<dim>1</dim>
					<dim>1</dim>
				</port>
			</output>
		</layer>
		<layer id="68" name="landmarks_fc_leye_x_new" type="Add" version="opset1">
			<data auto_broadcast="numpy"/>
			<input>
				<port id="0" precision="FP32">
					<dim>1</dim>
					<dim>60</dim>
					<dim>1</dim>
					<dim>1</dim>
				</port>
				<port id="1" precision="FP32">
					<dim>1</dim>
					<dim>60</dim>
					<dim>1</dim>
					<dim>1</dim>
				</port>
			</input>
			<output>
				<port id="2" names="landmarks_fc_leye_x_new" precision="FP32">
					<dim>1</dim>
					<dim>60</dim>
					<dim>1</dim>
					<dim>1</dim>
				</port>
			</output>
		</layer>
		<layer id="69" name="softmax_landmarks_leye_x" type="SoftMax" version="opset1">
			<data axis="1"/>
			<input>
				<port id="0" precision="FP32">
					<dim>1</dim>
					<dim>60</dim>
					<dim>1</dim>
					<dim>1</dim>
				</port>
			</input>
			<output>
				<port id="1" names="softmax_landmarks_leye_x" precision="FP32">
					<dim>1</dim>
					<dim>60</dim>
					<dim>1</dim>
					<dim>1</dim>
				</port>
			</output>
		</layer>
		<layer id="70" name="300" type="Const" version="opset1">
			<data element_type="f32" offset="6624104" shape="60, 256, 1, 1" size="61440"/>
			<output>
				<port id="0" precision="FP32">
					<dim>60</dim>
					<dim>256</dim>
					<dim>1</dim>
					<dim>1</dim>
				</port>
			</output>
		</layer>
		<layer id="71" name="landmarks_fc_leye_y_new/WithoutBiases" type="Convolution" version="opset1">
			<data auto_pad="explicit" dilations="1, 1" pads_begin="0, 0" pads_end="0, 0" strides="1, 1"/>
			<input>
				<port id="0" precision="FP32">
					<dim>1</dim>
					<dim>256</dim>
					<dim>1</dim>
					<dim>1</dim>
				</port>
				<port id="1" precision="FP32">
					<dim>60</dim>
					<dim>256</dim>
					<dim>1</dim>
					<dim>1</dim>
				</port>
			</input>
			<output>
				<port id="2" precision="FP32">
					<dim>1</dim>
					<dim>60</dim>
					<dim>1</dim>
					<dim>1</dim>
				</port>
			</output>
		</layer>
		<layer id="72" name="landmarks_fc_leye_y_new/Dims4663" type="Const" version="opset1">
			<data element_type="f32" offset="6685544" shape="1, 60, 1, 1" size="240"/>
			<output>
				<port id="0" precision="FP32">
					<dim>1</dim>
					<dim>60</dim>
					<dim>1</dim>
					<dim>1</dim>
				</port>
			</output>
		</layer>
		<layer id="73" name="landmarks_fc_leye_y_new" type="Add" version="opset1">
			<data auto_broadcast="numpy"/>
			<input>
				<port id="0" precision="FP32">
					<dim>1</dim>
					<dim>60</dim>
					<dim>1</dim>
					<dim>1</dim>
				</port>
				<port id="1" precision="FP32">
					<dim>1</dim>
					<dim>60</dim>
					<dim>1</dim>
					<dim>1</dim>
				</port>
			</input>
			<output>
				<port id="2" names="landmarks_fc_leye_y_new" precision="FP32">
					<dim>1</dim>
					<dim>60</dim>
					<dim>1</dim>
					<dim>1</dim>
				</port>
			</output>
		</layer>
		<layer id="74" name="softmax_landmarks_leye_y" type="SoftMax" version="opset1">
			<data axis="1"/>
			<input>
				<port id="0" precision="FP32">
					<dim>1</dim>
					<dim>60</dim>
					<dim>1</dim>
					<dim>1</dim>
				</port>
			</input>
			<output>
				<port id="1" names="softmax_landmarks_leye_y" precision="FP32">
					<dim>1</dim>
					<dim>60</dim>
					<dim>1</dim>
					<dim>1</dim>
				</port>
			</output>
		</layer>
		<layer id="75" name="bn/landmarks_conv_reye/mean/Fused_Mul__copy" type="Const" version="opset1">
			<data element_type="f32" offset="6685784" shape="256, 512, 1, 1" size="524288"/>
			<output>
				<port id="0" precision="FP32">
					<dim>256</dim>
					<dim>512</dim>
					<dim>1</dim>
					<dim>1</dim>
				</port>
			</output>
		</layer>
		<layer id="76" name="landmarks_conv_reye/WithoutBiases" type="Convolution" version="opset1">
			<data auto_pad="explicit" dilations="1, 1" pads_begin="0, 0" pads_end="0, 0" strides="1, 1"/>
			<input>
				<port id="0" precision="FP32">
					<dim>1</dim>
					<dim>512</dim>
					<dim>1</dim>
					<dim>1</dim>
				</port>
				<port id="1" precision="FP32">
					<dim>256</dim>
					<dim>512</dim>
					<dim>1</dim>
					<dim>1</dim>
				</port>
			</input>
			<output>
				<port id="2" precision="FP32">
					<dim>1</dim>
					<dim>256</dim>
					<dim>1</dim>
					<dim>1</dim>
				</port>
			</output>
		</layer>
		<layer id="77" name="data_add_75917596" type="Const" version="opset1">
			<data element_type="f32" offset="7210072" shape="1, 256, 1, 1" size="1024"/>
			<output>
				<port id="0" precision="FP32">
					<dim>1</dim>
					<dim>256</dim>
					<dim>1</dim>
					<dim>1</dim>
				</port>
			</output>
		</layer>
		<layer id="78" name="landmarks_conv_reye/Fused_Add_" type="Add" version="opset1">
			<data auto_broadcast="numpy"/>
			<input>
				<port id="0" precision="FP32">
					<dim>1</dim>
					<dim>256</dim>
					<dim>1</dim>
					<dim>1</dim>
				</port>
				<port id="1" precision="FP32">
					<dim>1</dim>
					<dim>256</dim>
					<dim>1</dim>
					<dim>1</dim>
				</port>
			</input>
			<output>
				<port id="2" names="landmarks_conv_reye" precision="FP32">
					<dim>1</dim>
					<dim>256</dim>
					<dim>1</dim>
					<dim>1</dim>
				</port>
			</output>
		</layer>
		<layer id="79" name="relu_reye" type="ReLU" version="opset1">
			<input>
				<port id="0" precision="FP32">
					<dim>1</dim>
					<dim>256</dim>
					<dim>1</dim>
					<dim>1</dim>
				</port>
			</input>
			<output>
				<port id="1" names="landmarks_conv_reye" precision="FP32">
					<dim>1</dim>
					<dim>256</dim>
					<dim>1</dim>
					<dim>1</dim>
				</port>
			</output>
		</layer>
		<layer id="80" name="314" type="Const" version="opset1">
			<data element_type="f32" offset="7211096" shape="60, 256, 1, 1" size="61440"/>
			<output>
				<port id="0" precision="FP32">
					<dim>60</dim>
					<dim>256</dim>
					<dim>1</dim>
					<dim>1</dim>
				</port>
			</output>
		</layer>
		<layer id="81" name="landmarks_fc_reye_x_new/WithoutBiases" type="Convolution" version="opset1">
			<data auto_pad="explicit" dilations="1, 1" pads_begin="0, 0" pads_end="0, 0" strides="1, 1"/>
			<input>
				<port id="0" precision="FP32">
					<dim>1</dim>
					<dim>256</dim>
					<dim>1</dim>
					<dim>1</dim>
				</port>
				<port id="1" precision="FP32">
					<dim>60</dim>
					<dim>256</dim>
					<dim>1</dim>
					<dim>1</dim>
				</port>
			</input>
			<output>
				<port id="2" precision="FP32">
					<dim>1</dim>
					<dim>60</dim>
					<dim>1</dim>
					<dim>1</dim>
				</port>
			</output>
		</layer>
		<layer id="82" name="landmarks_fc_reye_x_new/Dims4675" type="Const" version="opset1">
			<data element_type="f32" offset="7272536" shape="1, 60, 1, 1" size="240"/>
			<output>
				<port id="0" precision="FP32">
					<dim>1</dim>
					<dim>60</dim>
					<dim>1</dim>
					<dim>1</dim>
				</port>
			</output>
		</layer>
		<layer id="83" name="landmarks_fc_reye_x_new" type="Add" version="opset1">
			<data auto_broadcast="numpy"/>
			<input>
				<port id="0" precision="FP32">
					<dim>1</dim>
					<dim>60</dim>
					<dim>1</dim>
					<dim>1</dim>
				</port>
				<port id="1" precision="FP32">
					<dim>1</dim>
					<dim>60</dim>
					<dim>1</dim>
					<dim>1</dim>
				</port>
			</input>
			<output>
				<port id="2" names="landmarks_fc_reye_x_new" precision="FP32">
					<dim>1</dim>
					<dim>60</dim>
					<dim>1</dim>
					<dim>1</dim>
				</port>
			</output>
		</layer>
		<layer id="84" name="softmax_landmarks_reye_x" type="SoftMax" version="opset1">
			<data axis="1"/>
			<input>
				<port id="0" precision="FP32">
					<dim>1</dim>
					<dim>60</dim>
					<dim>1</dim>
					<dim>1</dim>
				</port>
			</input>
			<output>
				<port id="1" names="softmax_landmarks_reye_x" precision="FP32">
					<dim>1</dim>
					<dim>60</dim>
					<dim>1</dim>
					<dim>1</dim>
				</port>
			</output>
		</layer>
		<layer id="85" name="232" type="Const" version="opset1">
			<data element_type="f32" offset="7272776" shape="60, 256, 1, 1" size="61440"/>
			<output>
				<port id="0" precision="FP32">
					<dim>60</dim>
					<dim>256</dim>
					<dim>1</dim>
					<dim>1</dim>
				</port>
			</output>
		</layer>
		<layer id="86" name="landmarks_fc_reye_y_new/WithoutBiases" type="Convolution" version="opset1">
			<data auto_pad="explicit" dilations="1, 1" pads_begin="0, 0" pads_end="0, 0" strides="1, 1"/>
			<input>
				<port id="0" precision="FP32">
					<dim>1</dim>
					<dim>256</dim>
					<dim>1</dim>
					<dim>1</dim>
				</port>
				<port id="1" precision="FP32">
					<dim>60</dim>
					<dim>256</dim>
					<dim>1</dim>
					<dim>1</dim>
				</port>
			</input>
			<output>
				<port id="2" precision="FP32">
					<dim>1</dim>
					<dim>60</dim>
					<dim>1</dim>
					<dim>1</dim>
				</port>
			</output>
		</layer>
		<layer id="87" name="landmarks_fc_reye_y_new/Dims4345" type="Const" version="opset1">
			<data element_type="f32" offset="7334216" shape="1, 60, 1, 1" size="240"/>
			<output>
				<port id="0" precision="FP32">
					<dim>1</dim>
					<dim>60</dim>
					<dim>1</dim>
					<dim>1</dim>
				</port>
			</output>
		</layer>
		<layer id="88" name="landmarks_fc_reye_y_new" type="Add" version="opset1">
			<data auto_broadcast="numpy"/>
			<input>
				<port id="0" precision="FP32">
					<dim>1</dim>
					<dim>60</dim>
					<dim>1</dim>
					<dim>1</dim>
				</port>
				<port id="1" precision="FP32">
					<dim>1</dim>
					<dim>60</dim>
					<dim>1</dim>
					<dim>1</dim>
				</port>
			</input>
			<output>
				<port id="2" names="landmarks_fc_reye_y_new" precision="FP32">
					<dim>1</dim>
					<dim>60</dim>
					<dim>1</dim>
					<dim>1</dim>
				</port>
			</output>
		</layer>
		<layer id="89" name="softmax_landmarks_reye_y" type="SoftMax" version="opset1">
			<data axis="1"/>
			<input>
				<port id="0" precision="FP32">
					<dim>1</dim>
					<dim>60</dim>
					<dim>1</dim>
					<dim>1</dim>
				</port>
			</input>
			<output>
				<port id="1" names="softmax_landmarks_reye_y" precision="FP32">
					<dim>1</dim>
					<dim>60</dim>
					<dim>1</dim>
					<dim>1</dim>
				</port>
			</output>
		</layer>
		<layer id="90" name="394" type="Const" version="opset1">
			<data element_type="f32" offset="7334456" shape="60, 256, 1, 1" size="61440"/>
			<output>
				<port id="0" precision="FP32">
					<dim>60</dim>
					<dim>256</dim>
					<dim>1</dim>
					<dim>1</dim>
				</port>
			</output>
		</layer>
		<layer id="91" name="landmarks_fc_reye_corner_x_new/WithoutBiases" type="Convolution" version="opset1">
			<data auto_pad="explicit" dilations="1, 1" pads_begin="0, 0" pads_end="0, 0" strides="1, 1"/>
			<input>
				<port id="0" precision="FP32">
					<dim>1</dim>
					<dim>256</dim>
					<dim>1</dim>
					<dim>1</dim>
				</port>
				<port id="1" precision="FP32">
					<dim>60</dim>
					<dim>256</dim>
					<dim>1</dim>
					<dim>1</dim>
				</port>
			</input>
			<output>
				<port id="2" precision="FP32">
					<dim>1</dim>
					<dim>60</dim>
					<dim>1</dim>
					<dim>1</dim>
				</port>
			</output>
		</layer>
		<layer id="92" name="landmarks_fc_reye_corner_x_new/Dims4573" type="Const" version="opset1">
			<data element_type="f32" offset="7395896" shape="1, 60, 1, 1" size="240"/>
			<output>
				<port id="0" precision="FP32">
					<dim>1</dim>
					<dim>60</dim>
					<dim>1</dim>
					<dim>1</dim>
				</port>
			</output>
		</layer>
		<layer id="93" name="landmarks_fc_reye_corner_x_new" type="Add" version="opset1">
			<data auto_broadcast="numpy"/>
			<input>
				<port id="0" precision="FP32">
					<dim>1</dim>
					<dim>60</dim>
					<dim>1</dim>
					<dim>1</dim>
				</port>
				<port id="1" precision="FP32">
					<dim>1</dim>
					<dim>60</dim>
					<dim>1</dim>
					<dim>1</dim>
				</port>
			</input>
			<output>
				<port id="2" names="landmarks_fc_reye_corner_x_new" precision="FP32">
					<dim>1</dim>
					<dim>60</dim>
					<dim>1</dim>
					<dim>1</dim>
				</port>
			</output>
		</layer>
		<layer id="94" name="softmax_landmarks_reye_corner_x" type="SoftMax" version="opset1">
			<data axis="1"/>
			<input>
				<port id="0" precision="FP32">
					<dim>1</dim>
					<dim>60</dim>
					<dim>1</dim>
					<dim>1</dim>
				</port>
			</input>
			<output>
				<port id="1" names="softmax_landmarks_reye_corner_x" precision="FP32">
					<dim>1</dim>
					<dim>60</dim>
					<dim>1</dim>
					<dim>1</dim>
				</port>
			</output>
		</layer>
		<layer id="95" name="418" type="Const" version="opset1">
			<data element_type="f32" offset="7396136" shape="60, 256, 1, 1" size="61440"/>
			<output>
				<port id="0" precision="FP32">
					<dim>60</dim>
					<dim>256</dim>
					<dim>1</dim>
					<dim>1</dim>
				</port>
			</output>
		</layer>
		<layer id="96" name="landmarks_fc_reye_corner_y_new/WithoutBiases" type="Convolution" version="opset1">
			<data auto_pad="explicit" dilations="1, 1" pads_begin="0, 0" pads_end="0, 0" strides="1, 1"/>
			<input>
				<port id="0" precision="FP32">
					<dim>1</dim>
					<dim>256</dim>
					<dim>1</dim>
					<dim>1</dim>
				</port>
				<port id="1" precision="FP32">
					<dim>60</dim>
					<dim>256</dim>
					<dim>1</dim>
					<dim>1</dim>
				</port>
			</input>
			<output>
				<port id="2" precision="FP32">
					<dim>1</dim>
					<dim>60</dim>
					<dim>1</dim>
					<dim>1</dim>
				</port>
			</output>
		</layer>
		<layer id="97" name="landmarks_fc_reye_corner_y_new/Dims4717" type="Const" version="opset1">
			<data element_type="f32" offset="7457576" shape="1, 60, 1, 1" size="240"/>
			<output>
				<port id="0" precision="FP32">
					<dim>1</dim>
					<dim>60</dim>
					<dim>1</dim>
					<dim>1</dim>
				</port>
			</output>
		</layer>
		<layer id="98" name="landmarks_fc_reye_corner_y_new" type="Add" version="opset1">
			<data auto_broadcast="numpy"/>
			<input>
				<port id="0" precision="FP32">
					<dim>1</dim>
					<dim>60</dim>
					<dim>1</dim>
					<dim>1</dim>
				</port>
				<port id="1" precision="FP32">
					<dim>1</dim>
					<dim>60</dim>
					<dim>1</dim>
					<dim>1</dim>
				</port>
			</input>
			<output>
				<port id="2" names="landmarks_fc_reye_corner_y_new" precision="FP32">
					<dim>1</dim>
					<dim>60</dim>
					<dim>1</dim>
					<dim>1</dim>
				</port>
			</output>
		</layer>
		<layer id="99" name="softmax_landmarks_reye_corner_y" type="SoftMax" version="opset1">
			<data axis="1"/>
			<input>
				<port id="0" precision="FP32">
					<dim>1</dim>
					<dim>60</dim>
					<dim>1</dim>
					<dim>1</dim>
				</port>
			</input>
			<output>
				<port id="1" names="softmax_landmarks_reye_corner_y" precision="FP32">
					<dim>1</dim>
					<dim>60</dim>
					<dim>1</dim>
					<dim>1</dim>
				</port>
			</output>
		</layer>
		<layer id="100" name="bn/landmarks_conv_lnose/mean/Fused_Mul__copy" type="Const" version="opset1">
			<data element_type="f32" offset="7457816" shape="256, 512, 1, 1" size="524288"/>
			<output>
				<port id="0" precision="FP32">
					<dim>256</dim>
					<dim>512</dim>
					<dim>1</dim>
					<dim>1</dim>
				</port>
			</output>
		</layer>
		<layer id="101" name="landmarks_conv_lnose/WithoutBiases" type="Convolution" version="opset1">
			<data auto_pad="explicit" dilations="1, 1" pads_begin="0, 0" pads_end="0, 0" strides="1, 1"/>
			<input>
				<port id="0" precision="FP32">
					<dim>1</dim>
					<dim>512</dim>
					<dim>1</dim>
					<dim>1</dim>
				</port>
				<port id="1" precision="FP32">
					<dim>256</dim>
					<dim>512</dim>
					<dim>1</dim>
					<dim>1</dim>
				</port>
			</input>
			<output>
				<port id="2" precision="FP32">
					<dim>1</dim>
					<dim>256</dim>
					<dim>1</dim>
					<dim>1</dim>
				</port>
			</output>
		</layer>
		<layer id="102" name="data_add_75837588" type="Const" version="opset1">
			<data element_type="f32" offset="7982104" shape="1, 256, 1, 1" size="1024"/>
			<output>
				<port id="0" precision="FP32">
					<dim>1</dim>
					<dim>256</dim>
					<dim>1</dim>
					<dim>1</dim>
				</port>
			</output>
		</layer>
		<layer id="103" name="landmarks_conv_lnose/Fused_Add_" type="Add" version="opset1">
			<data auto_broadcast="numpy"/>
			<input>
				<port id="0" precision="FP32">
					<dim>1</dim>
					<dim>256</dim>
					<dim>1</dim>
					<dim>1</dim>
				</port>
				<port id="1" precision="FP32">
					<dim>1</dim>
					<dim>256</dim>
					<dim>1</dim>
					<dim>1</dim>
				</port>
			</input>
			<output>
				<port id="2" names="landmarks_conv_lnose" precision="FP32">
					<dim>1</dim>
					<dim>256</dim>
					<dim>1</dim>
					<dim>1</dim>
				</port>
			</output>
		</layer>
		<layer id="104" name="relu_lnose" type="ReLU" version="opset1">
			<input>
				<port id="0" precision="FP32">
					<dim>1</dim>
					<dim>256</dim>
					<dim>1</dim>
					<dim>1</dim>
				</port>
			</input>
			<output>
				<port id="1" names="landmarks_conv_lnose" precision="FP32">
					<dim>1</dim>
					<dim>256</dim>
					<dim>1</dim>
					<dim>1</dim>
				</port>
			</output>
		</layer>
		<layer id="105" name="430" type="Const" version="opset1">
			<data element_type="f32" offset="7983128" shape="60, 256, 1, 1" size="61440"/>
			<output>
				<port id="0" precision="FP32">
					<dim>60</dim>
					<dim>256</dim>
					<dim>1</dim>
					<dim>1</dim>
				</port>
			</output>
		</layer>
		<layer id="106" name="landmarks_fc_nose_bottom_x_new/WithoutBiases" type="Convolution" version="opset1">
			<data auto_pad="explicit" dilations="1, 1" pads_begin="0, 0" pads_end="0, 0" strides="1, 1"/>
			<input>
				<port id="0" precision="FP32">
					<dim>1</dim>
					<dim>256</dim>
					<dim>1</dim>
					<dim>1</dim>
				</port>
				<port id="1" precision="FP32">
					<dim>60</dim>
					<dim>256</dim>
					<dim>1</dim>
					<dim>1</dim>
				</port>
			</input>
			<output>
				<port id="2" precision="FP32">
					<dim>1</dim>
					<dim>60</dim>
					<dim>1</dim>
					<dim>1</dim>
				</port>
			</output>
		</layer>
		<layer id="107" name="landmarks_fc_nose_bottom_x_new/Dims4723" type="Const" version="opset1">
			<data element_type="f32" offset="8044568" shape="1, 60, 1, 1" size="240"/>
			<output>
				<port id="0" precision="FP32">
					<dim>1</dim>
					<dim>60</dim>
					<dim>1</dim>
					<dim>1</dim>
				</port>
			</output>
		</layer>
		<layer id="108" name="landmarks_fc_nose_bottom_x_new" type="Add" version="opset1">
			<data auto_broadcast="numpy"/>
			<input>
				<port id="0" precision="FP32">
					<dim>1</dim>
					<dim>60</dim>
					<dim>1</dim>
					<dim>1</dim>
				</port>
				<port id="1" precision="FP32">
					<dim>1</dim>
					<dim>60</dim>
					<dim>1</dim>
					<dim>1</dim>
				</port>
			</input>
			<output>
				<port id="2" names="landmarks_fc_nose_bottom_x_new" precision="FP32">
					<dim>1</dim>
					<dim>60</dim>
					<dim>1</dim>
					<dim>1</dim>
				</port>
			</output>
		</layer>
		<layer id="109" name="softmax_landmarks_nose_bottom_x" type="SoftMax" version="opset1">
			<data axis="1"/>
			<input>
				<port id="0" precision="FP32">
					<dim>1</dim>
					<dim>60</dim>
					<dim>1</dim>
					<dim>1</dim>
				</port>
			</input>
			<output>
				<port id="1" names="softmax_landmarks_nose_bottom_x" precision="FP32">
					<dim>1</dim>
					<dim>60</dim>
					<dim>1</dim>
					<dim>1</dim>
				</port>
			</output>
		</layer>
		<layer id="110" name="252" type="Const" version="opset1">
			<data element_type="f32" offset="8044808" shape="60, 256, 1, 1" size="61440"/>
			<output>
				<port id="0" precision="FP32">
					<dim>60</dim>
					<dim>256</dim>
					<dim>1</dim>
					<dim>1</dim>
				</port>
			</output>
		</layer>
		<layer id="111" name="landmarks_fc_nose_bottom_y_new/WithoutBiases" type="Convolution" version="opset1">
			<data auto_pad="explicit" dilations="1, 1" pads_begin="0, 0" pads_end="0, 0" strides="1, 1"/>
			<input>
				<port id="0" precision="FP32">
					<dim>1</dim>
					<dim>256</dim>
					<dim>1</dim>
					<dim>1</dim>
				</port>
				<port id="1" precision="FP32">
					<dim>60</dim>
					<dim>256</dim>
					<dim>1</dim>
					<dim>1</dim>
				</port>
			</input>
			<output>
				<port id="2" precision="FP32">
					<dim>1</dim>
					<dim>60</dim>
					<dim>1</dim>
					<dim>1</dim>
				</port>
			</output>
		</layer>
		<layer id="112" name="landmarks_fc_nose_bottom_y_new/Dims4645" type="Const" version="opset1">
			<data element_type="f32" offset="8106248" shape="1, 60, 1, 1" size="240"/>
			<output>
				<port id="0" precision="FP32">
					<dim>1</dim>
					<dim>60</dim>
					<dim>1</dim>
					<dim>1</dim>
				</port>
			</output>
		</layer>
		<layer id="113" name="landmarks_fc_nose_bottom_y_new" type="Add" version="opset1">
			<data auto_broadcast="numpy"/>
			<input>
				<port id="0" precision="FP32">
					<dim>1</dim>
					<dim>60</dim>
					<dim>1</dim>
					<dim>1</dim>
				</port>
				<port id="1" precision="FP32">
					<dim>1</dim>
					<dim>60</dim>
					<dim>1</dim>
					<dim>1</dim>
				</port>
			</input>
			<output>
				<port id="2" names="landmarks_fc_nose_bottom_y_new" precision="FP32">
					<dim>1</dim>
					<dim>60</dim>
					<dim>1</dim>
					<dim>1</dim>
				</port>
			</output>
		</layer>
		<layer id="114" name="softmax_landmarks_nose_bottom_y" type="SoftMax" version="opset1">
			<data axis="1"/>
			<input>
				<port id="0" precision="FP32">
					<dim>1</dim>
					<dim>60</dim>
					<dim>1</dim>
					<dim>1</dim>
				</port>
			</input>
			<output>
				<port id="1" names="softmax_landmarks_nose_bottom_y" precision="FP32">
					<dim>1</dim>
					<dim>60</dim>
					<dim>1</dim>
					<dim>1</dim>
				</port>
			</output>
		</layer>
		<layer id="115" name="204" type="Const" version="opset1">
			<data element_type="f32" offset="8106488" shape="60, 256, 1, 1" size="61440"/>
			<output>
				<port id="0" precision="FP32">
					<dim>60</dim>
					<dim>256</dim>
					<dim>1</dim>
					<dim>1</dim>
				</port>
			</output>
		</layer>
		<layer id="116" name="landmarks_fc_nose_tip_x_new/WithoutBiases" type="Convolution" version="opset1">
			<data auto_pad="explicit" dilations="1, 1" pads_begin="0, 0" pads_end="0, 0" strides="1, 1"/>
			<input>
				<port id="0" precision="FP32">
					<dim>1</dim>
					<dim>256</dim>
					<dim>1</dim>
					<dim>1</dim>
				</port>
				<port id="1" precision="FP32">
					<dim>60</dim>
					<dim>256</dim>
					<dim>1</dim>
					<dim>1</dim>
				</port>
			</input>
			<output>
				<port id="2" precision="FP32">
					<dim>1</dim>
					<dim>60</dim>
					<dim>1</dim>
					<dim>1</dim>
				</port>
			</output>
		</layer>
		<layer id="117" name="landmarks_fc_nose_tip_x_new/Dims4747" type="Const" version="opset1">
			<data element_type="f32" offset="8167928" shape="1, 60, 1, 1" size="240"/>
			<output>
				<port id="0" precision="FP32">
					<dim>1</dim>
					<dim>60</dim>
					<dim>1</dim>
					<dim>1</dim>
				</port>
			</output>
		</layer>
		<layer id="118" name="landmarks_fc_nose_tip_x_new" type="Add" version="opset1">
			<data auto_broadcast="numpy"/>
			<input>
				<port id="0" precision="FP32">
					<dim>1</dim>
					<dim>60</dim>
					<dim>1</dim>
					<dim>1</dim>
				</port>
				<port id="1" precision="FP32">
					<dim>1</dim>
					<dim>60</dim>
					<dim>1</dim>
					<dim>1</dim>
				</port>
			</input>
			<output>
				<port id="2" names="landmarks_fc_nose_tip_x_new" precision="FP32">
					<dim>1</dim>
					<dim>60</dim>
					<dim>1</dim>
					<dim>1</dim>
				</port>
			</output>
		</layer>
		<layer id="119" name="softmax_landmarks_nose_tip_x" type="SoftMax" version="opset1">
			<data axis="1"/>
			<input>
				<port id="0" precision="FP32">
					<dim>1</dim>
					<dim>60</dim>
					<dim>1</dim>
					<dim>1</dim>
				</port>
			</input>
			<output>
				<port id="1" names="softmax_landmarks_nose_tip_x" precision="FP32">
					<dim>1</dim>
					<dim>60</dim>
					<dim>1</dim>
					<dim>1</dim>
				</port>
			</output>
		</layer>
		<layer id="120" name="224" type="Const" version="opset1">
			<data element_type="f32" offset="8168168" shape="60, 256, 1, 1" size="61440"/>
			<output>
				<port id="0" precision="FP32">
					<dim>60</dim>
					<dim>256</dim>
					<dim>1</dim>
					<dim>1</dim>
				</port>
			</output>
		</layer>
		<layer id="121" name="landmarks_fc_nose_tip_y_new/WithoutBiases" type="Convolution" version="opset1">
			<data auto_pad="explicit" dilations="1, 1" pads_begin="0, 0" pads_end="0, 0" strides="1, 1"/>
			<input>
				<port id="0" precision="FP32">
					<dim>1</dim>
					<dim>256</dim>
					<dim>1</dim>
					<dim>1</dim>
				</port>
				<port id="1" precision="FP32">
					<dim>60</dim>
					<dim>256</dim>
					<dim>1</dim>
					<dim>1</dim>
				</port>
			</input>
			<output>
				<port id="2" precision="FP32">
					<dim>1</dim>
					<dim>60</dim>
					<dim>1</dim>
					<dim>1</dim>
				</port>
			</output>
		</layer>
		<layer id="122" name="landmarks_fc_nose_tip_y_new/Dims4495" type="Const" version="opset1">
			<data element_type="f32" offset="8229608" shape="1, 60, 1, 1" size="240"/>
			<output>
				<port id="0" precision="FP32">
					<dim>1</dim>
					<dim>60</dim>
					<dim>1</dim>
					<dim>1</dim>
				</port>
			</output>
		</layer>
		<layer id="123" name="landmarks_fc_nose_tip_y_new" type="Add" version="opset1">
			<data auto_broadcast="numpy"/>
			<input>
				<port id="0" precision="FP32">
					<dim>1</dim>
					<dim>60</dim>
					<dim>1</dim>
					<dim>1</dim>
				</port>
				<port id="1" precision="FP32">
					<dim>1</dim>
					<dim>60</dim>
					<dim>1</dim>
					<dim>1</dim>
				</port>
			</input>
			<output>
				<port id="2" names="landmarks_fc_nose_tip_y_new" precision="FP32">
					<dim>1</dim>
					<dim>60</dim>
					<dim>1</dim>
					<dim>1</dim>
				</port>
			</output>
		</layer>
		<layer id="124" name="softmax_landmarks_nose_tip_y" type="SoftMax" version="opset1">
			<data axis="1"/>
			<input>
				<port id="0" precision="FP32">
					<dim>1</dim>
					<dim>60</dim>
					<dim>1</dim>
					<dim>1</dim>
				</port>
			</input>
			<output>
				<port id="1" names="softmax_landmarks_nose_tip_y" precision="FP32">
					<dim>1</dim>
					<dim>60</dim>
					<dim>1</dim>
					<dim>1</dim>
				</port>
			</output>
		</layer>
		<layer id="125" name="374" type="Const" version="opset1">
			<data element_type="f32" offset="8229848" shape="60, 256, 1, 1" size="61440"/>
			<output>
				<port id="0" precision="FP32">
					<dim>60</dim>
					<dim>256</dim>
					<dim>1</dim>
					<dim>1</dim>
				</port>
			</output>
		</layer>
		<layer id="126" name="landmarks_fc_lnose_x_new/WithoutBiases" type="Convolution" version="opset1">
			<data auto_pad="explicit" dilations="1, 1" pads_begin="0, 0" pads_end="0, 0" strides="1, 1"/>
			<input>
				<port id="0" precision="FP32">
					<dim>1</dim>
					<dim>256</dim>
					<dim>1</dim>
					<dim>1</dim>
				</port>
				<port id="1" precision="FP32">
					<dim>60</dim>
					<dim>256</dim>
					<dim>1</dim>
					<dim>1</dim>
				</port>
			</input>
			<output>
				<port id="2" precision="FP32">
					<dim>1</dim>
					<dim>60</dim>
					<dim>1</dim>
					<dim>1</dim>
				</port>
			</output>
		</layer>
		<layer id="127" name="landmarks_fc_lnose_x_new/Dims4693" type="Const" version="opset1">
			<data element_type="f32" offset="8291288" shape="1, 60, 1, 1" size="240"/>
			<output>
				<port id="0" precision="FP32">
					<dim>1</dim>
					<dim>60</dim>
					<dim>1</dim>
					<dim>1</dim>
				</port>
			</output>
		</layer>
		<layer id="128" name="landmarks_fc_lnose_x_new" type="Add" version="opset1">
			<data auto_broadcast="numpy"/>
			<input>
				<port id="0" precision="FP32">
					<dim>1</dim>
					<dim>60</dim>
					<dim>1</dim>
					<dim>1</dim>
				</port>
				<port id="1" precision="FP32">
					<dim>1</dim>
					<dim>60</dim>
					<dim>1</dim>
					<dim>1</dim>
				</port>
			</input>
			<output>
				<port id="2" names="landmarks_fc_lnose_x_new" precision="FP32">
					<dim>1</dim>
					<dim>60</dim>
					<dim>1</dim>
					<dim>1</dim>
				</port>
			</output>
		</layer>
		<layer id="129" name="softmax_landmarks_lnose_x" type="SoftMax" version="opset1">
			<data axis="1"/>
			<input>
				<port id="0" precision="FP32">
					<dim>1</dim>
					<dim>60</dim>
					<dim>1</dim>
					<dim>1</dim>
				</port>
			</input>
			<output>
				<port id="1" names="softmax_landmarks_lnose_x" precision="FP32">
					<dim>1</dim>
					<dim>60</dim>
					<dim>1</dim>
					<dim>1</dim>
				</port>
			</output>
		</layer>
		<layer id="130" name="268" type="Const" version="opset1">
			<data element_type="f32" offset="8291528" shape="60, 256, 1, 1" size="61440"/>
			<output>
				<port id="0" precision="FP32">
					<dim>60</dim>
					<dim>256</dim>
					<dim>1</dim>
					<dim>1</dim>
				</port>
			</output>
		</layer>
		<layer id="131" name="landmarks_fc_lnose_y_new/WithoutBiases" type="Convolution" version="opset1">
			<data auto_pad="explicit" dilations="1, 1" pads_begin="0, 0" pads_end="0, 0" strides="1, 1"/>
			<input>
				<port id="0" precision="FP32">
					<dim>1</dim>
					<dim>256</dim>
					<dim>1</dim>
					<dim>1</dim>
				</port>
				<port id="1" precision="FP32">
					<dim>60</dim>
					<dim>256</dim>
					<dim>1</dim>
					<dim>1</dim>
				</port>
			</input>
			<output>
				<port id="2" precision="FP32">
					<dim>1</dim>
					<dim>60</dim>
					<dim>1</dim>
					<dim>1</dim>
				</port>
			</output>
		</layer>
		<layer id="132" name="landmarks_fc_lnose_y_new/Dims4513" type="Const" version="opset1">
			<data element_type="f32" offset="8352968" shape="1, 60, 1, 1" size="240"/>
			<output>
				<port id="0" precision="FP32">
					<dim>1</dim>
					<dim>60</dim>
					<dim>1</dim>
					<dim>1</dim>
				</port>
			</output>
		</layer>
		<layer id="133" name="landmarks_fc_lnose_y_new" type="Add" version="opset1">
			<data auto_broadcast="numpy"/>
			<input>
				<port id="0" precision="FP32">
					<dim>1</dim>
					<dim>60</dim>
					<dim>1</dim>
					<dim>1</dim>
				</port>
				<port id="1" precision="FP32">
					<dim>1</dim>
					<dim>60</dim>
					<dim>1</dim>
					<dim>1</dim>
				</port>
			</input>
			<output>
				<port id="2" names="landmarks_fc_lnose_y_new" precision="FP32">
					<dim>1</dim>
					<dim>60</dim>
					<dim>1</dim>
					<dim>1</dim>
				</port>
			</output>
		</layer>
		<layer id="134" name="softmax_landmarks_lnose_y" type="SoftMax" version="opset1">
			<data axis="1"/>
			<input>
				<port id="0" precision="FP32">
					<dim>1</dim>
					<dim>60</dim>
					<dim>1</dim>
					<dim>1</dim>
				</port>
			</input>
			<output>
				<port id="1" names="softmax_landmarks_lnose_y" precision="FP32">
					<dim>1</dim>
					<dim>60</dim>
					<dim>1</dim>
					<dim>1</dim>
				</port>
			</output>
		</layer>
		<layer id="135" name="222" type="Const" version="opset1">
			<data element_type="f32" offset="8353208" shape="60, 256, 1, 1" size="61440"/>
			<output>
				<port id="0" precision="FP32">
					<dim>60</dim>
					<dim>256</dim>
					<dim>1</dim>
					<dim>1</dim>
				</port>
			</output>
		</layer>
		<layer id="136" name="landmarks_fc_rnose_x_new/WithoutBiases" type="Convolution" version="opset1">
			<data auto_pad="explicit" dilations="1, 1" pads_begin="0, 0" pads_end="0, 0" strides="1, 1"/>
			<input>
				<port id="0" precision="FP32">
					<dim>1</dim>
					<dim>256</dim>
					<dim>1</dim>
					<dim>1</dim>
				</port>
				<port id="1" precision="FP32">
					<dim>60</dim>
					<dim>256</dim>
					<dim>1</dim>
					<dim>1</dim>
				</port>
			</input>
			<output>
				<port id="2" precision="FP32">
					<dim>1</dim>
					<dim>60</dim>
					<dim>1</dim>
					<dim>1</dim>
				</port>
			</output>
		</layer>
		<layer id="137" name="landmarks_fc_rnose_x_new/Dims4765" type="Const" version="opset1">
			<data element_type="f32" offset="8414648" shape="1, 60, 1, 1" size="240"/>
			<output>
				<port id="0" precision="FP32">
					<dim>1</dim>
					<dim>60</dim>
					<dim>1</dim>
					<dim>1</dim>
				</port>
			</output>
		</layer>
		<layer id="138" name="landmarks_fc_rnose_x_new" type="Add" version="opset1">
			<data auto_broadcast="numpy"/>
			<input>
				<port id="0" precision="FP32">
					<dim>1</dim>
					<dim>60</dim>
					<dim>1</dim>
					<dim>1</dim>
				</port>
				<port id="1" precision="FP32">
					<dim>1</dim>
					<dim>60</dim>
					<dim>1</dim>
					<dim>1</dim>
				</port>
			</input>
			<output>
				<port id="2" names="landmarks_fc_rnose_x_new" precision="FP32">
					<dim>1</dim>
					<dim>60</dim>
					<dim>1</dim>
					<dim>1</dim>
				</port>
			</output>
		</layer>
		<layer id="139" name="softmax_landmarks_rnose_x" type="SoftMax" version="opset1">
			<data axis="1"/>
			<input>
				<port id="0" precision="FP32">
					<dim>1</dim>
					<dim>60</dim>
					<dim>1</dim>
					<dim>1</dim>
				</port>
			</input>
			<output>
				<port id="1" names="softmax_landmarks_rnose_x" precision="FP32">
					<dim>1</dim>
					<dim>60</dim>
					<dim>1</dim>
					<dim>1</dim>
				</port>
			</output>
		</layer>
		<layer id="140" name="340" type="Const" version="opset1">
			<data element_type="f32" offset="8414888" shape="60, 256, 1, 1" size="61440"/>
			<output>
				<port id="0" precision="FP32">
					<dim>60</dim>
					<dim>256</dim>
					<dim>1</dim>
					<dim>1</dim>
				</port>
			</output>
		</layer>
		<layer id="141" name="landmarks_fc_rnose_y_new/WithoutBiases" type="Convolution" version="opset1">
			<data auto_pad="explicit" dilations="1, 1" pads_begin="0, 0" pads_end="0, 0" strides="1, 1"/>
			<input>
				<port id="0" precision="FP32">
					<dim>1</dim>
					<dim>256</dim>
					<dim>1</dim>
					<dim>1</dim>
				</port>
				<port id="1" precision="FP32">
					<dim>60</dim>
					<dim>256</dim>
					<dim>1</dim>
					<dim>1</dim>
				</port>
			</input>
			<output>
				<port id="2" precision="FP32">
					<dim>1</dim>
					<dim>60</dim>
					<dim>1</dim>
					<dim>1</dim>
				</port>
			</output>
		</layer>
		<layer id="142" name="landmarks_fc_rnose_y_new/Dims4831" type="Const" version="opset1">
			<data element_type="f32" offset="8476328" shape="1, 60, 1, 1" size="240"/>
			<output>
				<port id="0" precision="FP32">
					<dim>1</dim>
					<dim>60</dim>
					<dim>1</dim>
					<dim>1</dim>
				</port>
			</output>
		</layer>
		<layer id="143" name="landmarks_fc_rnose_y_new" type="Add" version="opset1">
			<data auto_broadcast="numpy"/>
			<input>
				<port id="0" precision="FP32">
					<dim>1</dim>
					<dim>60</dim>
					<dim>1</dim>
					<dim>1</dim>
				</port>
				<port id="1" precision="FP32">
					<dim>1</dim>
					<dim>60</dim>
					<dim>1</dim>
					<dim>1</dim>
				</port>
			</input>
			<output>
				<port id="2" names="landmarks_fc_rnose_y_new" precision="FP32">
					<dim>1</dim>
					<dim>60</dim>
					<dim>1</dim>
					<dim>1</dim>
				</port>
			</output>
		</layer>
		<layer id="144" name="softmax_landmarks_rnose_y" type="SoftMax" version="opset1">
			<data axis="1"/>
			<input>
				<port id="0" precision="FP32">
					<dim>1</dim>
					<dim>60</dim>
					<dim>1</dim>
					<dim>1</dim>
				</port>
			</input>
			<output>
				<port id="1" names="softmax_landmarks_rnose_y" precision="FP32">
					<dim>1</dim>
					<dim>60</dim>
					<dim>1</dim>
					<dim>1</dim>
				</port>
			</output>
		</layer>
		<layer id="145" name="bn/landmarks_conv_rmouth_corner/mean/Fused_Mul__copy" type="Const" version="opset1">
			<data element_type="f32" offset="8476568" shape="256, 512, 1, 1" size="524288"/>
			<output>
				<port id="0" precision="FP32">
					<dim>256</dim>
					<dim>512</dim>
					<dim>1</dim>
					<dim>1</dim>
				</port>
			</output>
		</layer>
		<layer id="146" name="landmarks_conv_rmouth_corner/WithoutBiases" type="Convolution" version="opset1">
			<data auto_pad="explicit" dilations="1, 1" pads_begin="0, 0" pads_end="0, 0" strides="1, 1"/>
			<input>
				<port id="0" precision="FP32">
					<dim>1</dim>
					<dim>512</dim>
					<dim>1</dim>
					<dim>1</dim>
				</port>
				<port id="1" precision="FP32">
					<dim>256</dim>
					<dim>512</dim>
					<dim>1</dim>
					<dim>1</dim>
				</port>
			</input>
			<output>
				<port id="2" precision="FP32">
					<dim>1</dim>
					<dim>256</dim>
					<dim>1</dim>
					<dim>1</dim>
				</port>
			</output>
		</layer>
		<layer id="147" name="data_add_75757580" type="Const" version="opset1">
			<data element_type="f32" offset="9000856" shape="1, 256, 1, 1" size="1024"/>
			<output>
				<port id="0" precision="FP32">
					<dim>1</dim>
					<dim>256</dim>
					<dim>1</dim>
					<dim>1</dim>
				</port>
			</output>
		</layer>
		<layer id="148" name="landmarks_conv_rmouth_corner/Fused_Add_" type="Add" version="opset1">
			<data auto_broadcast="numpy"/>
			<input>
				<port id="0" precision="FP32">
					<dim>1</dim>
					<dim>256</dim>
					<dim>1</dim>
					<dim>1</dim>
				</port>
				<port id="1" precision="FP32">
					<dim>1</dim>
					<dim>256</dim>
					<dim>1</dim>
					<dim>1</dim>
				</port>
			</input>
			<output>
				<port id="2" names="landmarks_conv_rmouth_corner" precision="FP32">
					<dim>1</dim>
					<dim>256</dim>
					<dim>1</dim>
					<dim>1</dim>
				</port>
			</output>
		</layer>
		<layer id="149" name="relu_rmouth_corner" type="ReLU" version="opset1">
			<input>
				<port id="0" precision="FP32">
					<dim>1</dim>
					<dim>256</dim>
					<dim>1</dim>
					<dim>1</dim>
				</port>
			</input>
			<output>
				<port id="1" names="landmarks_conv_rmouth_corner" precision="FP32">
					<dim>1</dim>
					<dim>256</dim>
					<dim>1</dim>
					<dim>1</dim>
				</port>
			</output>
		</layer>
		<layer id="150" name="254" type="Const" version="opset1">
			<data element_type="f32" offset="9001880" shape="60, 256, 1, 1" size="61440"/>
			<output>
				<port id="0" precision="FP32">
					<dim>60</dim>
					<dim>256</dim>
					<dim>1</dim>
					<dim>1</dim>
				</port>
			</output>
		</layer>
		<layer id="151" name="landmarks_fc_rmouth_corner_x_new/WithoutBiases" type="Convolution" version="opset1">
			<data auto_pad="explicit" dilations="1, 1" pads_begin="0, 0" pads_end="0, 0" strides="1, 1"/>
			<input>
				<port id="0" precision="FP32">
					<dim>1</dim>
					<dim>256</dim>
					<dim>1</dim>
					<dim>1</dim>
				</port>
				<port id="1" precision="FP32">
					<dim>60</dim>
					<dim>256</dim>
					<dim>1</dim>
					<dim>1</dim>
				</port>
			</input>
			<output>
				<port id="2" precision="FP32">
					<dim>1</dim>
					<dim>60</dim>
					<dim>1</dim>
					<dim>1</dim>
				</port>
			</output>
		</layer>
		<layer id="152" name="landmarks_fc_rmouth_corner_x_new/Dims4777" type="Const" version="opset1">
			<data element_type="f32" offset="9063320" shape="1, 60, 1, 1" size="240"/>
			<output>
				<port id="0" precision="FP32">
					<dim>1</dim>
					<dim>60</dim>
					<dim>1</dim>
					<dim>1</dim>
				</port>
			</output>
		</layer>
		<layer id="153" name="landmarks_fc_rmouth_corner_x_new" type="Add" version="opset1">
			<data auto_broadcast="numpy"/>
			<input>
				<port id="0" precision="FP32">
					<dim>1</dim>
					<dim>60</dim>
					<dim>1</dim>
					<dim>1</dim>
				</port>
				<port id="1" precision="FP32">
					<dim>1</dim>
					<dim>60</dim>
					<dim>1</dim>
					<dim>1</dim>
				</port>
			</input>
			<output>
				<port id="2" names="landmarks_fc_rmouth_corner_x_new" precision="FP32">
					<dim>1</dim>
					<dim>60</dim>
					<dim>1</dim>
					<dim>1</dim>
				</port>
			</output>
		</layer>
		<layer id="154" name="softmax_landmarks_rmouth_corner_x" type="SoftMax" version="opset1">
			<data axis="1"/>
			<input>
				<port id="0" precision="FP32">
					<dim>1</dim>
					<dim>60</dim>
					<dim>1</dim>
					<dim>1</dim>
				</port>
			</input>
			<output>
				<port id="1" names="softmax_landmarks_rmouth_corner_x" precision="FP32">
					<dim>1</dim>
					<dim>60</dim>
					<dim>1</dim>
					<dim>1</dim>
				</port>
			</output>
		</layer>
		<layer id="155" name="236" type="Const" version="opset1">
			<data element_type="f32" offset="9063560" shape="60, 256, 1, 1" size="61440"/>
			<output>
				<port id="0" precision="FP32">
					<dim>60</dim>
					<dim>256</dim>
					<dim>1</dim>
					<dim>1</dim>
				</port>
			</output>
		</layer>
		<layer id="156" name="landmarks_fc_rmouth_corner_y_new/WithoutBiases" type="Convolution" version="opset1">
			<data auto_pad="explicit" dilations="1, 1" pads_begin="0, 0" pads_end="0, 0" strides="1, 1"/>
			<input>
				<port id="0" precision="FP32">
					<dim>1</dim>
					<dim>256</dim>
					<dim>1</dim>
					<dim>1</dim>
				</port>
				<port id="1" precision="FP32">
					<dim>60</dim>
					<dim>256</dim>
					<dim>1</dim>
					<dim>1</dim>
				</port>
			</input>
			<output>
				<port id="2" precision="FP32">
					<dim>1</dim>
					<dim>60</dim>
					<dim>1</dim>
					<dim>1</dim>
				</port>
			</output>
		</layer>
		<layer id="157" name="landmarks_fc_rmouth_corner_y_new/Dims4633" type="Const" version="opset1">
			<data element_type="f32" offset="9125000" shape="1, 60, 1, 1" size="240"/>
			<output>
				<port id="0" precision="FP32">
					<dim>1</dim>
					<dim>60</dim>
					<dim>1</dim>
					<dim>1</dim>
				</port>
			</output>
		</layer>
		<layer id="158" name="landmarks_fc_rmouth_corner_y_new" type="Add" version="opset1">
			<data auto_broadcast="numpy"/>
			<input>
				<port id="0" precision="FP32">
					<dim>1</dim>
					<dim>60</dim>
					<dim>1</dim>
					<dim>1</dim>
				</port>
				<port id="1" precision="FP32">
					<dim>1</dim>
					<dim>60</dim>
					<dim>1</dim>
					<dim>1</dim>
				</port>
			</input>
			<output>
				<port id="2" names="landmarks_fc_rmouth_corner_y_new" precision="FP32">
					<dim>1</dim>
					<dim>60</dim>
					<dim>1</dim>
					<dim>1</dim>
				</port>
			</output>
		</layer>
		<layer id="159" name="softmax_landmarks_rmouth_corner_y" type="SoftMax" version="opset1">
			<data axis="1"/>
			<input>
				<port id="0" precision="FP32">
					<dim>1</dim>
					<dim>60</dim>
					<dim>1</dim>
					<dim>1</dim>
				</port>
			</input>
			<output>
				<port id="1" names="softmax_landmarks_rmouth_corner_y" precision="FP32">
					<dim>1</dim>
					<dim>60</dim>
					<dim>1</dim>
					<dim>1</dim>
				</port>
			</output>
		</layer>
		<layer id="160" name="442" type="Const" version="opset1">
			<data element_type="f32" offset="9125240" shape="60, 256, 1, 1" size="61440"/>
			<output>
				<port id="0" precision="FP32">
					<dim>60</dim>
					<dim>256</dim>
					<dim>1</dim>
					<dim>1</dim>
				</port>
			</output>
		</layer>
		<layer id="161" name="landmarks_fc_top_mouth_center_x_new/WithoutBiases" type="Convolution" version="opset1">
			<data auto_pad="explicit" dilations="1, 1" pads_begin="0, 0" pads_end="0, 0" strides="1, 1"/>
			<input>
				<port id="0" precision="FP32">
					<dim>1</dim>
					<dim>256</dim>
					<dim>1</dim>
					<dim>1</dim>
				</port>
				<port id="1" precision="FP32">
					<dim>60</dim>
					<dim>256</dim>
					<dim>1</dim>
					<dim>1</dim>
				</port>
			</input>
			<output>
				<port id="2" precision="FP32">
					<dim>1</dim>
					<dim>60</dim>
					<dim>1</dim>
					<dim>1</dim>
				</port>
			</output>
		</layer>
		<layer id="162" name="landmarks_fc_top_mouth_center_x_new/Dims4741" type="Const" version="opset1">
			<data element_type="f32" offset="9186680" shape="1, 60, 1, 1" size="240"/>
			<output>
				<port id="0" precision="FP32">
					<dim>1</dim>
					<dim>60</dim>
					<dim>1</dim>
					<dim>1</dim>
				</port>
			</output>
		</layer>
		<layer id="163" name="landmarks_fc_top_mouth_center_x_new" type="Add" version="opset1">
			<data auto_broadcast="numpy"/>
			<input>
				<port id="0" precision="FP32">
					<dim>1</dim>
					<dim>60</dim>
					<dim>1</dim>
					<dim>1</dim>
				</port>
				<port id="1" precision="FP32">
					<dim>1</dim>
					<dim>60</dim>
					<dim>1</dim>
					<dim>1</dim>
				</port>
			</input>
			<output>
				<port id="2" names="landmarks_fc_top_mouth_center_x_new" precision="FP32">
					<dim>1</dim>
					<dim>60</dim>
					<dim>1</dim>
					<dim>1</dim>
				</port>
			</output>
		</layer>
		<layer id="164" name="softmax_landmarks_top_mouth_center_x" type="SoftMax" version="opset1">
			<data axis="1"/>
			<input>
				<port id="0" precision="FP32">
					<dim>1</dim>
					<dim>60</dim>
					<dim>1</dim>
					<dim>1</dim>
				</port>
			</input>
			<output>
				<port id="1" names="softmax_landmarks_top_mouth_center_x" precision="FP32">
					<dim>1</dim>
					<dim>60</dim>
					<dim>1</dim>
					<dim>1</dim>
				</port>
			</output>
		</layer>
		<layer id="165" name="248" type="Const" version="opset1">
			<data element_type="f32" offset="9186920" shape="60, 256, 1, 1" size="61440"/>
			<output>
				<port id="0" precision="FP32">
					<dim>60</dim>
					<dim>256</dim>
					<dim>1</dim>
					<dim>1</dim>
				</port>
			</output>
		</layer>
		<layer id="166" name="landmarks_fc_top_mouth_center_y_new/WithoutBiases" type="Convolution" version="opset1">
			<data auto_pad="explicit" dilations="1, 1" pads_begin="0, 0" pads_end="0, 0" strides="1, 1"/>
			<input>
				<port id="0" precision="FP32">
					<dim>1</dim>
					<dim>256</dim>
					<dim>1</dim>
					<dim>1</dim>
				</port>
				<port id="1" precision="FP32">
					<dim>60</dim>
					<dim>256</dim>
					<dim>1</dim>
					<dim>1</dim>
				</port>
			</input>
			<output>
				<port id="2" precision="FP32">
					<dim>1</dim>
					<dim>60</dim>
					<dim>1</dim>
					<dim>1</dim>
				</port>
			</output>
		</layer>
		<layer id="167" name="landmarks_fc_top_mouth_center_y_new/Dims4771" type="Const" version="opset1">
			<data element_type="f32" offset="9248360" shape="1, 60, 1, 1" size="240"/>
			<output>
				<port id="0" precision="FP32">
					<dim>1</dim>
					<dim>60</dim>
					<dim>1</dim>
					<dim>1</dim>
				</port>
			</output>
		</layer>
		<layer id="168" name="landmarks_fc_top_mouth_center_y_new" type="Add" version="opset1">
			<data auto_broadcast="numpy"/>
			<input>
				<port id="0" precision="FP32">
					<dim>1</dim>
					<dim>60</dim>
					<dim>1</dim>
					<dim>1</dim>
				</port>
				<port id="1" precision="FP32">
					<dim>1</dim>
					<dim>60</dim>
					<dim>1</dim>
					<dim>1</dim>
				</port>
			</input>
			<output>
				<port id="2" names="landmarks_fc_top_mouth_center_y_new" precision="FP32">
					<dim>1</dim>
					<dim>60</dim>
					<dim>1</dim>
					<dim>1</dim>
				</port>
			</output>
		</layer>
		<layer id="169" name="softmax_landmarks_top_mouth_center_y" type="SoftMax" version="opset1">
			<data axis="1"/>
			<input>
				<port id="0" precision="FP32">
					<dim>1</dim>
					<dim>60</dim>
					<dim>1</dim>
					<dim>1</dim>
				</port>
			</input>
			<output>
				<port id="1" names="softmax_landmarks_top_mouth_center_y" precision="FP32">
					<dim>1</dim>
					<dim>60</dim>
					<dim>1</dim>
					<dim>1</dim>
				</port>
			</output>
		</layer>
		<layer id="170" name="328" type="Const" version="opset1">
			<data element_type="f32" offset="9248600" shape="60, 256, 1, 1" size="61440"/>
			<output>
				<port id="0" precision="FP32">
					<dim>60</dim>
					<dim>256</dim>
					<dim>1</dim>
					<dim>1</dim>
				</port>
			</output>
		</layer>
		<layer id="171" name="landmarks_fc_lmouth_corner_x_new/WithoutBiases" type="Convolution" version="opset1">
			<data auto_pad="explicit" dilations="1, 1" pads_begin="0, 0" pads_end="0, 0" strides="1, 1"/>
			<input>
				<port id="0" precision="FP32">
					<dim>1</dim>
					<dim>256</dim>
					<dim>1</dim>
					<dim>1</dim>
				</port>
				<port id="1" precision="FP32">
					<dim>60</dim>
					<dim>256</dim>
					<dim>1</dim>
					<dim>1</dim>
				</port>
			</input>
			<output>
				<port id="2" precision="FP32">
					<dim>1</dim>
					<dim>60</dim>
					<dim>1</dim>
					<dim>1</dim>
				</port>
			</output>
		</layer>
		<layer id="172" name="landmarks_fc_lmouth_corner_x_new/Dims4537" type="Const" version="opset1">
			<data element_type="f32" offset="9310040" shape="1, 60, 1, 1" size="240"/>
			<output>
				<port id="0" precision="FP32">
					<dim>1</dim>
					<dim>60</dim>
					<dim>1</dim>
					<dim>1</dim>
				</port>
			</output>
		</layer>
		<layer id="173" name="landmarks_fc_lmouth_corner_x_new" type="Add" version="opset1">
			<data auto_broadcast="numpy"/>
			<input>
				<port id="0" precision="FP32">
					<dim>1</dim>
					<dim>60</dim>
					<dim>1</dim>
					<dim>1</dim>
				</port>
				<port id="1" precision="FP32">
					<dim>1</dim>
					<dim>60</dim>
					<dim>1</dim>
					<dim>1</dim>
				</port>
			</input>
			<output>
				<port id="2" names="landmarks_fc_lmouth_corner_x_new" precision="FP32">
					<dim>1</dim>
					<dim>60</dim>
					<dim>1</dim>
					<dim>1</dim>
				</port>
			</output>
		</layer>
		<layer id="174" name="softmax_landmarks_lmouth_corner_x" type="SoftMax" version="opset1">
			<data axis="1"/>
			<input>
				<port id="0" precision="FP32">
					<dim>1</dim>
					<dim>60</dim>
					<dim>1</dim>
					<dim>1</dim>
				</port>
			</input>
			<output>
				<port id="1" names="softmax_landmarks_lmouth_corner_x" precision="FP32">
					<dim>1</dim>
					<dim>60</dim>
					<dim>1</dim>
					<dim>1</dim>
				</port>
			</output>
		</layer>
		<layer id="175" name="352" type="Const" version="opset1">
			<data element_type="f32" offset="9310280" shape="60, 256, 1, 1" size="61440"/>
			<output>
				<port id="0" precision="FP32">
					<dim>60</dim>
					<dim>256</dim>
					<dim>1</dim>
					<dim>1</dim>
				</port>
			</output>
		</layer>
		<layer id="176" name="landmarks_fc_lmouth_corner_y_new/WithoutBiases" type="Convolution" version="opset1">
			<data auto_pad="explicit" dilations="1, 1" pads_begin="0, 0" pads_end="0, 0" strides="1, 1"/>
			<input>
				<port id="0" precision="FP32">
					<dim>1</dim>
					<dim>256</dim>
					<dim>1</dim>
					<dim>1</dim>
				</port>
				<port id="1" precision="FP32">
					<dim>60</dim>
					<dim>256</dim>
					<dim>1</dim>
					<dim>1</dim>
				</port>
			</input>
			<output>
				<port id="2" precision="FP32">
					<dim>1</dim>
					<dim>60</dim>
					<dim>1</dim>
					<dim>1</dim>
				</port>
			</output>
		</layer>
		<layer id="177" name="landmarks_fc_lmouth_corner_y_new/Dims4393" type="Const" version="opset1">
			<data element_type="f32" offset="9371720" shape="1, 60, 1, 1" size="240"/>
			<output>
				<port id="0" precision="FP32">
					<dim>1</dim>
					<dim>60</dim>
					<dim>1</dim>
					<dim>1</dim>
				</port>
			</output>
		</layer>
		<layer id="178" name="landmarks_fc_lmouth_corner_y_new" type="Add" version="opset1">
			<data auto_broadcast="numpy"/>
			<input>
				<port id="0" precision="FP32">
					<dim>1</dim>
					<dim>60</dim>
					<dim>1</dim>
					<dim>1</dim>
				</port>
				<port id="1" precision="FP32">
					<dim>1</dim>
					<dim>60</dim>
					<dim>1</dim>
					<dim>1</dim>
				</port>
			</input>
			<output>
				<port id="2" names="landmarks_fc_lmouth_corner_y_new" precision="FP32">
					<dim>1</dim>
					<dim>60</dim>
					<dim>1</dim>
					<dim>1</dim>
				</port>
			</output>
		</layer>
		<layer id="179" name="softmax_landmarks_lmouth_corner_y" type="SoftMax" version="opset1">
			<data axis="1"/>
			<input>
				<port id="0" precision="FP32">
					<dim>1</dim>
					<dim>60</dim>
					<dim>1</dim>
					<dim>1</dim>
				</port>
			</input>
			<output>
				<port id="1" names="softmax_landmarks_lmouth_corner_y" precision="FP32">
					<dim>1</dim>
					<dim>60</dim>
					<dim>1</dim>
					<dim>1</dim>
				</port>
			</output>
		</layer>
		<layer id="180" name="286" type="Const" version="opset1">
			<data element_type="f32" offset="9371960" shape="60, 256, 1, 1" size="61440"/>
			<output>
				<port id="0" precision="FP32">
					<dim>60</dim>
					<dim>256</dim>
					<dim>1</dim>
					<dim>1</dim>
				</port>
			</output>
		</layer>
		<layer id="181" name="landmarks_fc_bottom_mouth_center_x_new/WithoutBiases" type="Convolution" version="opset1">
			<data auto_pad="explicit" dilations="1, 1" pads_begin="0, 0" pads_end="0, 0" strides="1, 1"/>
			<input>
				<port id="0" precision="FP32">
					<dim>1</dim>
					<dim>256</dim>
					<dim>1</dim>
					<dim>1</dim>
				</port>
				<port id="1" precision="FP32">
					<dim>60</dim>
					<dim>256</dim>
					<dim>1</dim>
					<dim>1</dim>
				</port>
			</input>
			<output>
				<port id="2" precision="FP32">
					<dim>1</dim>
					<dim>60</dim>
					<dim>1</dim>
					<dim>1</dim>
				</port>
			</output>
		</layer>
		<layer id="182" name="landmarks_fc_bottom_mouth_center_x_new/Dims4657" type="Const" version="opset1">
			<data element_type="f32" offset="9433400" shape="1, 60, 1, 1" size="240"/>
			<output>
				<port id="0" precision="FP32">
					<dim>1</dim>
					<dim>60</dim>
					<dim>1</dim>
					<dim>1</dim>
				</port>
			</output>
		</layer>
		<layer id="183" name="landmarks_fc_bottom_mouth_center_x_new" type="Add" version="opset1">
			<data auto_broadcast="numpy"/>
			<input>
				<port id="0" precision="FP32">
					<dim>1</dim>
					<dim>60</dim>
					<dim>1</dim>
					<dim>1</dim>
				</port>
				<port id="1" precision="FP32">
					<dim>1</dim>
					<dim>60</dim>
					<dim>1</dim>
					<dim>1</dim>
				</port>
			</input>
			<output>
				<port id="2" names="landmarks_fc_bottom_mouth_center_x_new" precision="FP32">
					<dim>1</dim>
					<dim>60</dim>
					<dim>1</dim>
					<dim>1</dim>
				</port>
			</output>
		</layer>
		<layer id="184" name="softmax_landmarks_bottom_mouth_center_x" type="SoftMax" version="opset1">
			<data axis="1"/>
			<input>
				<port id="0" precision="FP32">
					<dim>1</dim>
					<dim>60</dim>
					<dim>1</dim>
					<dim>1</dim>
				</port>
			</input>
			<output>
				<port id="1" names="softmax_landmarks_bottom_mouth_center_x" precision="FP32">
					<dim>1</dim>
					<dim>60</dim>
					<dim>1</dim>
					<dim>1</dim>
				</port>
			</output>
		</layer>
		<layer id="185" name="364" type="Const" version="opset1">
			<data element_type="f32" offset="9433640" shape="60, 256, 1, 1" size="61440"/>
			<output>
				<port id="0" precision="FP32">
					<dim>60</dim>
					<dim>256</dim>
					<dim>1</dim>
					<dim>1</dim>
				</port>
			</output>
		</layer>
		<layer id="186" name="landmarks_fc_bottom_mouth_center_y_new/WithoutBiases" type="Convolution" version="opset1">
			<data auto_pad="explicit" dilations="1, 1" pads_begin="0, 0" pads_end="0, 0" strides="1, 1"/>
			<input>
				<port id="0" precision="FP32">
					<dim>1</dim>
					<dim>256</dim>
					<dim>1</dim>
					<dim>1</dim>
				</port>
				<port id="1" precision="FP32">
					<dim>60</dim>
					<dim>256</dim>
					<dim>1</dim>
					<dim>1</dim>
				</port>
			</input>
			<output>
				<port id="2" precision="FP32">
					<dim>1</dim>
					<dim>60</dim>
					<dim>1</dim>
					<dim>1</dim>
				</port>
			</output>
		</layer>
		<layer id="187" name="landmarks_fc_bottom_mouth_center_y_new/Dims4405" type="Const" version="opset1">
			<data element_type="f32" offset="9495080" shape="1, 60, 1, 1" size="240"/>
			<output>
				<port id="0" precision="FP32">
					<dim>1</dim>
					<dim>60</dim>
					<dim>1</dim>
					<dim>1</dim>
				</port>
			</output>
		</layer>
		<layer id="188" name="landmarks_fc_bottom_mouth_center_y_new" type="Add" version="opset1">
			<data auto_broadcast="numpy"/>
			<input>
				<port id="0" precision="FP32">
					<dim>1</dim>
					<dim>60</dim>
					<dim>1</dim>
					<dim>1</dim>
				</port>
				<port id="1" precision="FP32">
					<dim>1</dim>
					<dim>60</dim>
					<dim>1</dim>
					<dim>1</dim>
				</port>
			</input>
			<output>
				<port id="2" names="landmarks_fc_bottom_mouth_center_y_new" precision="FP32">
					<dim>1</dim>
					<dim>60</dim>
					<dim>1</dim>
					<dim>1</dim>
				</port>
			</output>
		</layer>
		<layer id="189" name="softmax_landmarks_bottom_mouth_center_y" type="SoftMax" version="opset1">
			<data axis="1"/>
			<input>
				<port id="0" precision="FP32">
					<dim>1</dim>
					<dim>60</dim>
					<dim>1</dim>
					<dim>1</dim>
				</port>
			</input>
			<output>
				<port id="1" names="softmax_landmarks_bottom_mouth_center_y" precision="FP32">
					<dim>1</dim>
					<dim>60</dim>
					<dim>1</dim>
					<dim>1</dim>
				</port>
			</output>
		</layer>
		<layer id="190" name="bn/landmarks_conv_leyebrow_right/mean/Fused_Mul__copy" type="Const" version="opset1">
			<data element_type="f32" offset="9495320" shape="256, 512, 1, 1" size="524288"/>
			<output>
				<port id="0" precision="FP32">
					<dim>256</dim>
					<dim>512</dim>
					<dim>1</dim>
					<dim>1</dim>
				</port>
			</output>
		</layer>
		<layer id="191" name="landmarks_conv_leyebrow_right/WithoutBiases" type="Convolution" version="opset1">
			<data auto_pad="explicit" dilations="1, 1" pads_begin="0, 0" pads_end="0, 0" strides="1, 1"/>
			<input>
				<port id="0" precision="FP32">
					<dim>1</dim>
					<dim>512</dim>
					<dim>1</dim>
					<dim>1</dim>
				</port>
				<port id="1" precision="FP32">
					<dim>256</dim>
					<dim>512</dim>
					<dim>1</dim>
					<dim>1</dim>
				</port>
			</input>
			<output>
				<port id="2" precision="FP32">
					<dim>1</dim>
					<dim>256</dim>
					<dim>1</dim>
					<dim>1</dim>
				</port>
			</output>
		</layer>
		<layer id="192" name="data_add_75677572" type="Const" version="opset1">
			<data element_type="f32" offset="10019608" shape="1, 256, 1, 1" size="1024"/>
			<output>
				<port id="0" precision="FP32">
					<dim>1</dim>
					<dim>256</dim>
					<dim>1</dim>
					<dim>1</dim>
				</port>
			</output>
		</layer>
		<layer id="193" name="landmarks_conv_leyebrow_right/Fused_Add_" type="Add" version="opset1">
			<data auto_broadcast="numpy"/>
			<input>
				<port id="0" precision="FP32">
					<dim>1</dim>
					<dim>256</dim>
					<dim>1</dim>
					<dim>1</dim>
				</port>
				<port id="1" precision="FP32">
					<dim>1</dim>
					<dim>256</dim>
					<dim>1</dim>
					<dim>1</dim>
				</port>
			</input>
			<output>
				<port id="2" names="landmarks_conv_leyebrow_right" precision="FP32">
					<dim>1</dim>
					<dim>256</dim>
					<dim>1</dim>
					<dim>1</dim>
				</port>
			</output>
		</layer>
		<layer id="194" name="relu_leyebrow_right" type="ReLU" version="opset1">
			<input>
				<port id="0" precision="FP32">
					<dim>1</dim>
					<dim>256</dim>
					<dim>1</dim>
					<dim>1</dim>
				</port>
			</input>
			<output>
				<port id="1" names="landmarks_conv_leyebrow_right" precision="FP32">
					<dim>1</dim>
					<dim>256</dim>
					<dim>1</dim>
					<dim>1</dim>
				</port>
			</output>
		</layer>
		<layer id="195" name="432" type="Const" version="opset1">
			<data element_type="f32" offset="10020632" shape="60, 256, 1, 1" size="61440"/>
			<output>
				<port id="0" precision="FP32">
					<dim>60</dim>
					<dim>256</dim>
					<dim>1</dim>
					<dim>1</dim>
				</port>
			</output>
		</layer>
		<layer id="196" name="landmarks_fc_leyebrow_right_x_new/WithoutBiases" type="Convolution" version="opset1">
			<data auto_pad="explicit" dilations="1, 1" pads_begin="0, 0" pads_end="0, 0" strides="1, 1"/>
			<input>
				<port id="0" precision="FP32">
					<dim>1</dim>
					<dim>256</dim>
					<dim>1</dim>
					<dim>1</dim>
				</port>
				<port id="1" precision="FP32">
					<dim>60</dim>
					<dim>256</dim>
					<dim>1</dim>
					<dim>1</dim>
				</port>
			</input>
			<output>
				<port id="2" precision="FP32">
					<dim>1</dim>
					<dim>60</dim>
					<dim>1</dim>
					<dim>1</dim>
				</port>
			</output>
		</layer>
		<layer id="197" name="landmarks_fc_leyebrow_right_x_new/Dims4471" type="Const" version="opset1">
			<data element_type="f32" offset="10082072" shape="1, 60, 1, 1" size="240"/>
			<output>
				<port id="0" precision="FP32">
					<dim>1</dim>
					<dim>60</dim>
					<dim>1</dim>
					<dim>1</dim>
				</port>
			</output>
		</layer>
		<layer id="198" name="landmarks_fc_leyebrow_right_x_new" type="Add" version="opset1">
			<data auto_broadcast="numpy"/>
			<input>
				<port id="0" precision="FP32">
					<dim>1</dim>
					<dim>60</dim>
					<dim>1</dim>
					<dim>1</dim>
				</port>
				<port id="1" precision="FP32">
					<dim>1</dim>
					<dim>60</dim>
					<dim>1</dim>
					<dim>1</dim>
				</port>
			</input>
			<output>
				<port id="2" names="landmarks_fc_leyebrow_right_x_new" precision="FP32">
					<dim>1</dim>
					<dim>60</dim>
					<dim>1</dim>
					<dim>1</dim>
				</port>
			</output>
		</layer>
		<layer id="199" name="softmax_landmarks_leyebrow_right_x" type="SoftMax" version="opset1">
			<data axis="1"/>
			<input>
				<port id="0" precision="FP32">
					<dim>1</dim>
					<dim>60</dim>
					<dim>1</dim>
					<dim>1</dim>
				</port>
			</input>
			<output>
				<port id="1" names="softmax_landmarks_leyebrow_right_x" precision="FP32">
					<dim>1</dim>
					<dim>60</dim>
					<dim>1</dim>
					<dim>1</dim>
				</port>
			</output>
		</layer>
		<layer id="200" name="416" type="Const" version="opset1">
			<data element_type="f32" offset="10082312" shape="60, 256, 1, 1" size="61440"/>
			<output>
				<port id="0" precision="FP32">
					<dim>60</dim>
					<dim>256</dim>
					<dim>1</dim>
					<dim>1</dim>
				</port>
			</output>
		</layer>
		<layer id="201" name="landmarks_fc_leyebrow_right_y_new/WithoutBiases" type="Convolution" version="opset1">
			<data auto_pad="explicit" dilations="1, 1" pads_begin="0, 0" pads_end="0, 0" strides="1, 1"/>
			<input>
				<port id="0" precision="FP32">
					<dim>1</dim>
					<dim>256</dim>
					<dim>1</dim>
					<dim>1</dim>
				</port>
				<port id="1" precision="FP32">
					<dim>60</dim>
					<dim>256</dim>
					<dim>1</dim>
					<dim>1</dim>
				</port>
			</input>
			<output>
				<port id="2" precision="FP32">
					<dim>1</dim>
					<dim>60</dim>
					<dim>1</dim>
					<dim>1</dim>
				</port>
			</output>
		</layer>
		<layer id="202" name="landmarks_fc_leyebrow_right_y_new/Dims4591" type="Const" version="opset1">
			<data element_type="f32" offset="10143752" shape="1, 60, 1, 1" size="240"/>
			<output>
				<port id="0" precision="FP32">
					<dim>1</dim>
					<dim>60</dim>
					<dim>1</dim>
					<dim>1</dim>
				</port>
			</output>
		</layer>
		<layer id="203" name="landmarks_fc_leyebrow_right_y_new" type="Add" version="opset1">
			<data auto_broadcast="numpy"/>
			<input>
				<port id="0" precision="FP32">
					<dim>1</dim>
					<dim>60</dim>
					<dim>1</dim>
					<dim>1</dim>
				</port>
				<port id="1" precision="FP32">
					<dim>1</dim>
					<dim>60</dim>
					<dim>1</dim>
					<dim>1</dim>
				</port>
			</input>
			<output>
				<port id="2" names="landmarks_fc_leyebrow_right_y_new" precision="FP32">
					<dim>1</dim>
					<dim>60</dim>
					<dim>1</dim>
					<dim>1</dim>
				</port>
			</output>
		</layer>
		<layer id="204" name="softmax_landmarks_leyebrow_right_y" type="SoftMax" version="opset1">
			<data axis="1"/>
			<input>
				<port id="0" precision="FP32">
					<dim>1</dim>
					<dim>60</dim>
					<dim>1</dim>
					<dim>1</dim>
				</port>
			</input>
			<output>
				<port id="1" names="softmax_landmarks_leyebrow_right_y" precision="FP32">
					<dim>1</dim>
					<dim>60</dim>
					<dim>1</dim>
					<dim>1</dim>
				</port>
			</output>
		</layer>
		<layer id="205" name="350" type="Const" version="opset1">
			<data element_type="f32" offset="10143992" shape="60, 256, 1, 1" size="61440"/>
			<output>
				<port id="0" precision="FP32">
					<dim>60</dim>
					<dim>256</dim>
					<dim>1</dim>
					<dim>1</dim>
				</port>
			</output>
		</layer>
		<layer id="206" name="landmarks_fc_leyebrow_center_x_new/WithoutBiases" type="Convolution" version="opset1">
			<data auto_pad="explicit" dilations="1, 1" pads_begin="0, 0" pads_end="0, 0" strides="1, 1"/>
			<input>
				<port id="0" precision="FP32">
					<dim>1</dim>
					<dim>256</dim>
					<dim>1</dim>
					<dim>1</dim>
				</port>
				<port id="1" precision="FP32">
					<dim>60</dim>
					<dim>256</dim>
					<dim>1</dim>
					<dim>1</dim>
				</port>
			</input>
			<output>
				<port id="2" precision="FP32">
					<dim>1</dim>
					<dim>60</dim>
					<dim>1</dim>
					<dim>1</dim>
				</port>
			</output>
		</layer>
		<layer id="207" name="landmarks_fc_leyebrow_center_x_new/Dims4543" type="Const" version="opset1">
			<data element_type="f32" offset="10205432" shape="1, 60, 1, 1" size="240"/>
			<output>
				<port id="0" precision="FP32">
					<dim>1</dim>
					<dim>60</dim>
					<dim>1</dim>
					<dim>1</dim>
				</port>
			</output>
		</layer>
		<layer id="208" name="landmarks_fc_leyebrow_center_x_new" type="Add" version="opset1">
			<data auto_broadcast="numpy"/>
			<input>
				<port id="0" precision="FP32">
					<dim>1</dim>
					<dim>60</dim>
					<dim>1</dim>
					<dim>1</dim>
				</port>
				<port id="1" precision="FP32">
					<dim>1</dim>
					<dim>60</dim>
					<dim>1</dim>
					<dim>1</dim>
				</port>
			</input>
			<output>
				<port id="2" names="landmarks_fc_leyebrow_center_x_new" precision="FP32">
					<dim>1</dim>
					<dim>60</dim>
					<dim>1</dim>
					<dim>1</dim>
				</port>
			</output>
		</layer>
		<layer id="209" name="softmax_landmarks_leyebrow_center_x" type="SoftMax" version="opset1">
			<data axis="1"/>
			<input>
				<port id="0" precision="FP32">
					<dim>1</dim>
					<dim>60</dim>
					<dim>1</dim>
					<dim>1</dim>
				</port>
			</input>
			<output>
				<port id="1" names="softmax_landmarks_leyebrow_center_x" precision="FP32">
					<dim>1</dim>
					<dim>60</dim>
					<dim>1</dim>
					<dim>1</dim>
				</port>
			</output>
		</layer>
		<layer id="210" name="344" type="Const" version="opset1">
			<data element_type="f32" offset="10205672" shape="60, 256, 1, 1" size="61440"/>
			<output>
				<port id="0" precision="FP32">
					<dim>60</dim>
					<dim>256</dim>
					<dim>1</dim>
					<dim>1</dim>
				</port>
			</output>
		</layer>
		<layer id="211" name="landmarks_fc_leyebrow_center_y_new/WithoutBiases" type="Convolution" version="opset1">
			<data auto_pad="explicit" dilations="1, 1" pads_begin="0, 0" pads_end="0, 0" strides="1, 1"/>
			<input>
				<port id="0" precision="FP32">
					<dim>1</dim>
					<dim>256</dim>
					<dim>1</dim>
					<dim>1</dim>
				</port>
				<port id="1" precision="FP32">
					<dim>60</dim>
					<dim>256</dim>
					<dim>1</dim>
					<dim>1</dim>
				</port>
			</input>
			<output>
				<port id="2" precision="FP32">
					<dim>1</dim>
					<dim>60</dim>
					<dim>1</dim>
					<dim>1</dim>
				</port>
			</output>
		</layer>
		<layer id="212" name="landmarks_fc_leyebrow_center_y_new/Dims4843" type="Const" version="opset1">
			<data element_type="f32" offset="10267112" shape="1, 60, 1, 1" size="240"/>
			<output>
				<port id="0" precision="FP32">
					<dim>1</dim>
					<dim>60</dim>
					<dim>1</dim>
					<dim>1</dim>
				</port>
			</output>
		</layer>
		<layer id="213" name="landmarks_fc_leyebrow_center_y_new" type="Add" version="opset1">
			<data auto_broadcast="numpy"/>
			<input>
				<port id="0" precision="FP32">
					<dim>1</dim>
					<dim>60</dim>
					<dim>1</dim>
					<dim>1</dim>
				</port>
				<port id="1" precision="FP32">
					<dim>1</dim>
					<dim>60</dim>
					<dim>1</dim>
					<dim>1</dim>
				</port>
			</input>
			<output>
				<port id="2" names="landmarks_fc_leyebrow_center_y_new" precision="FP32">
					<dim>1</dim>
					<dim>60</dim>
					<dim>1</dim>
					<dim>1</dim>
				</port>
			</output>
		</layer>
		<layer id="214" name="softmax_landmarks_leyebrow_center_y" type="SoftMax" version="opset1">
			<data axis="1"/>
			<input>
				<port id="0" precision="FP32">
					<dim>1</dim>
					<dim>60</dim>
					<dim>1</dim>
					<dim>1</dim>
				</port>
			</input>
			<output>
				<port id="1" names="softmax_landmarks_leyebrow_center_y" precision="FP32">
					<dim>1</dim>
					<dim>60</dim>
					<dim>1</dim>
					<dim>1</dim>
				</port>
			</output>
		</layer>
		<layer id="215" name="376" type="Const" version="opset1">
			<data element_type="f32" offset="10267352" shape="60, 256, 1, 1" size="61440"/>
			<output>
				<port id="0" precision="FP32">
					<dim>60</dim>
					<dim>256</dim>
					<dim>1</dim>
					<dim>1</dim>
				</port>
			</output>
		</layer>
		<layer id="216" name="landmarks_fc_leyebrow_left_x_new/WithoutBiases" type="Convolution" version="opset1">
			<data auto_pad="explicit" dilations="1, 1" pads_begin="0, 0" pads_end="0, 0" strides="1, 1"/>
			<input>
				<port id="0" precision="FP32">
					<dim>1</dim>
					<dim>256</dim>
					<dim>1</dim>
					<dim>1</dim>
				</port>
				<port id="1" precision="FP32">
					<dim>60</dim>
					<dim>256</dim>
					<dim>1</dim>
					<dim>1</dim>
				</port>
			</input>
			<output>
				<port id="2" precision="FP32">
					<dim>1</dim>
					<dim>60</dim>
					<dim>1</dim>
					<dim>1</dim>
				</port>
			</output>
		</layer>
		<layer id="217" name="landmarks_fc_leyebrow_left_x_new/Dims4561" type="Const" version="opset1">
			<data element_type="f32" offset="10328792" shape="1, 60, 1, 1" size="240"/>
			<output>
				<port id="0" precision="FP32">
					<dim>1</dim>
					<dim>60</dim>
					<dim>1</dim>
					<dim>1</dim>
				</port>
			</output>
		</layer>
		<layer id="218" name="landmarks_fc_leyebrow_left_x_new" type="Add" version="opset1">
			<data auto_broadcast="numpy"/>
			<input>
				<port id="0" precision="FP32">
					<dim>1</dim>
					<dim>60</dim>
					<dim>1</dim>
					<dim>1</dim>
				</port>
				<port id="1" precision="FP32">
					<dim>1</dim>
					<dim>60</dim>
					<dim>1</dim>
					<dim>1</dim>
				</port>
			</input>
			<output>
				<port id="2" names="landmarks_fc_leyebrow_left_x_new" precision="FP32">
					<dim>1</dim>
					<dim>60</dim>
					<dim>1</dim>
					<dim>1</dim>
				</port>
			</output>
		</layer>
		<layer id="219" name="softmax_landmarks_leyebrow_left_x" type="SoftMax" version="opset1">
			<data axis="1"/>
			<input>
				<port id="0" precision="FP32">
					<dim>1</dim>
					<dim>60</dim>
					<dim>1</dim>
					<dim>1</dim>
				</port>
			</input>
			<output>
				<port id="1" names="softmax_landmarks_leyebrow_left_x" precision="FP32">
					<dim>1</dim>
					<dim>60</dim>
					<dim>1</dim>
					<dim>1</dim>
				</port>
			</output>
		</layer>
		<layer id="220" name="242" type="Const" version="opset1">
			<data element_type="f32" offset="10329032" shape="60, 256, 1, 1" size="61440"/>
			<output>
				<port id="0" precision="FP32">
					<dim>60</dim>
					<dim>256</dim>
					<dim>1</dim>
					<dim>1</dim>
				</port>
			</output>
		</layer>
		<layer id="221" name="landmarks_fc_leyebrow_left_y_new/WithoutBiases" type="Convolution" version="opset1">
			<data auto_pad="explicit" dilations="1, 1" pads_begin="0, 0" pads_end="0, 0" strides="1, 1"/>
			<input>
				<port id="0" precision="FP32">
					<dim>1</dim>
					<dim>256</dim>
					<dim>1</dim>
					<dim>1</dim>
				</port>
				<port id="1" precision="FP32">
					<dim>60</dim>
					<dim>256</dim>
					<dim>1</dim>
					<dim>1</dim>
				</port>
			</input>
			<output>
				<port id="2" precision="FP32">
					<dim>1</dim>
					<dim>60</dim>
					<dim>1</dim>
					<dim>1</dim>
				</port>
			</output>
		</layer>
		<layer id="222" name="landmarks_fc_leyebrow_left_y_new/Dims4639" type="Const" version="opset1">
			<data element_type="f32" offset="10390472" shape="1, 60, 1, 1" size="240"/>
			<output>
				<port id="0" precision="FP32">
					<dim>1</dim>
					<dim>60</dim>
					<dim>1</dim>
					<dim>1</dim>
				</port>
			</output>
		</layer>
		<layer id="223" name="landmarks_fc_leyebrow_left_y_new" type="Add" version="opset1">
			<data auto_broadcast="numpy"/>
			<input>
				<port id="0" precision="FP32">
					<dim>1</dim>
					<dim>60</dim>
					<dim>1</dim>
					<dim>1</dim>
				</port>
				<port id="1" precision="FP32">
					<dim>1</dim>
					<dim>60</dim>
					<dim>1</dim>
					<dim>1</dim>
				</port>
			</input>
			<output>
				<port id="2" names="landmarks_fc_leyebrow_left_y_new" precision="FP32">
					<dim>1</dim>
					<dim>60</dim>
					<dim>1</dim>
					<dim>1</dim>
				</port>
			</output>
		</layer>
		<layer id="224" name="softmax_landmarks_leyebrow_left_y" type="SoftMax" version="opset1">
			<data axis="1"/>
			<input>
				<port id="0" precision="FP32">
					<dim>1</dim>
					<dim>60</dim>
					<dim>1</dim>
					<dim>1</dim>
				</port>
			</input>
			<output>
				<port id="1" names="softmax_landmarks_leyebrow_left_y" precision="FP32">
					<dim>1</dim>
					<dim>60</dim>
					<dim>1</dim>
					<dim>1</dim>
				</port>
			</output>
		</layer>
		<layer id="225" name="bn/landmarks_conv_reyebrow_center/mean/Fused_Mul__copy" type="Const" version="opset1">
			<data element_type="f32" offset="10390712" shape="256, 512, 1, 1" size="524288"/>
			<output>
				<port id="0" precision="FP32">
					<dim>256</dim>
					<dim>512</dim>
					<dim>1</dim>
					<dim>1</dim>
				</port>
			</output>
		</layer>
		<layer id="226" name="landmarks_conv_reyebrow_center/WithoutBiases" type="Convolution" version="opset1">
			<data auto_pad="explicit" dilations="1, 1" pads_begin="0, 0" pads_end="0, 0" strides="1, 1"/>
			<input>
				<port id="0" precision="FP32">
					<dim>1</dim>
					<dim>512</dim>
					<dim>1</dim>
					<dim>1</dim>
				</port>
				<port id="1" precision="FP32">
					<dim>256</dim>
					<dim>512</dim>
					<dim>1</dim>
					<dim>1</dim>
				</port>
			</input>
			<output>
				<port id="2" precision="FP32">
					<dim>1</dim>
					<dim>256</dim>
					<dim>1</dim>
					<dim>1</dim>
				</port>
			</output>
		</layer>
		<layer id="227" name="data_add_75597564" type="Const" version="opset1">
			<data element_type="f32" offset="10915000" shape="1, 256, 1, 1" size="1024"/>
			<output>
				<port id="0" precision="FP32">
					<dim>1</dim>
					<dim>256</dim>
					<dim>1</dim>
					<dim>1</dim>
				</port>
			</output>
		</layer>
		<layer id="228" name="landmarks_conv_reyebrow_center/Fused_Add_" type="Add" version="opset1">
			<data auto_broadcast="numpy"/>
			<input>
				<port id="0" precision="FP32">
					<dim>1</dim>
					<dim>256</dim>
					<dim>1</dim>
					<dim>1</dim>
				</port>
				<port id="1" precision="FP32">
					<dim>1</dim>
					<dim>256</dim>
					<dim>1</dim>
					<dim>1</dim>
				</port>
			</input>
			<output>
				<port id="2" names="landmarks_conv_reyebrow_center" precision="FP32">
					<dim>1</dim>
					<dim>256</dim>
					<dim>1</dim>
					<dim>1</dim>
				</port>
			</output>
		</layer>
		<layer id="229" name="relu_reyebrow_center" type="ReLU" version="opset1">
			<input>
				<port id="0" precision="FP32">
					<dim>1</dim>
					<dim>256</dim>
					<dim>1</dim>
					<dim>1</dim>
				</port>
			</input>
			<output>
				<port id="1" names="landmarks_conv_reyebrow_center" precision="FP32">
					<dim>1</dim>
					<dim>256</dim>
					<dim>1</dim>
					<dim>1</dim>
				</port>
			</output>
		</layer>
		<layer id="230" name="270" type="Const" version="opset1">
			<data element_type="f32" offset="10916024" shape="60, 256, 1, 1" size="61440"/>
			<output>
				<port id="0" precision="FP32">
					<dim>60</dim>
					<dim>256</dim>
					<dim>1</dim>
					<dim>1</dim>
				</port>
			</output>
		</layer>
		<layer id="231" name="landmarks_fc_reyebrow_left_x_new/WithoutBiases" type="Convolution" version="opset1">
			<data auto_pad="explicit" dilations="1, 1" pads_begin="0, 0" pads_end="0, 0" strides="1, 1"/>
			<input>
				<port id="0" precision="FP32">
					<dim>1</dim>
					<dim>256</dim>
					<dim>1</dim>
					<dim>1</dim>
				</port>
				<port id="1" precision="FP32">
					<dim>60</dim>
					<dim>256</dim>
					<dim>1</dim>
					<dim>1</dim>
				</port>
			</input>
			<output>
				<port id="2" precision="FP32">
					<dim>1</dim>
					<dim>60</dim>
					<dim>1</dim>
					<dim>1</dim>
				</port>
			</output>
		</layer>
		<layer id="232" name="landmarks_fc_reyebrow_left_x_new/Dims4519" type="Const" version="opset1">
			<data element_type="f32" offset="10977464" shape="1, 60, 1, 1" size="240"/>
			<output>
				<port id="0" precision="FP32">
					<dim>1</dim>
					<dim>60</dim>
					<dim>1</dim>
					<dim>1</dim>
				</port>
			</output>
		</layer>
		<layer id="233" name="landmarks_fc_reyebrow_left_x_new" type="Add" version="opset1">
			<data auto_broadcast="numpy"/>
			<input>
				<port id="0" precision="FP32">
					<dim>1</dim>
					<dim>60</dim>
					<dim>1</dim>
					<dim>1</dim>
				</port>
				<port id="1" precision="FP32">
					<dim>1</dim>
					<dim>60</dim>
					<dim>1</dim>
					<dim>1</dim>
				</port>
			</input>
			<output>
				<port id="2" names="landmarks_fc_reyebrow_left_x_new" precision="FP32">
					<dim>1</dim>
					<dim>60</dim>
					<dim>1</dim>
					<dim>1</dim>
				</port>
			</output>
		</layer>
		<layer id="234" name="softmax_landmarks_reyebrow_left_x" type="SoftMax" version="opset1">
			<data axis="1"/>
			<input>
				<port id="0" precision="FP32">
					<dim>1</dim>
					<dim>60</dim>
					<dim>1</dim>
					<dim>1</dim>
				</port>
			</input>
			<output>
				<port id="1" names="softmax_landmarks_reyebrow_left_x" precision="FP32">
					<dim>1</dim>
					<dim>60</dim>
					<dim>1</dim>
					<dim>1</dim>
				</port>
			</output>
		</layer>
		<layer id="235" name="392" type="Const" version="opset1">
			<data element_type="f32" offset="10977704" shape="60, 256, 1, 1" size="61440"/>
			<output>
				<port id="0" precision="FP32">
					<dim>60</dim>
					<dim>256</dim>
					<dim>1</dim>
					<dim>1</dim>
				</port>
			</output>
		</layer>
		<layer id="236" name="landmarks_fc_reyebrow_left_y_new/WithoutBiases" type="Convolution" version="opset1">
			<data auto_pad="explicit" dilations="1, 1" pads_begin="0, 0" pads_end="0, 0" strides="1, 1"/>
			<input>
				<port id="0" precision="FP32">
					<dim>1</dim>
					<dim>256</dim>
					<dim>1</dim>
					<dim>1</dim>
				</port>
				<port id="1" precision="FP32">
					<dim>60</dim>
					<dim>256</dim>
					<dim>1</dim>
					<dim>1</dim>
				</port>
			</input>
			<output>
				<port id="2" precision="FP32">
					<dim>1</dim>
					<dim>60</dim>
					<dim>1</dim>
					<dim>1</dim>
				</port>
			</output>
		</layer>
		<layer id="237" name="landmarks_fc_reyebrow_left_y_new/Dims4429" type="Const" version="opset1">
			<data element_type="f32" offset="11039144" shape="1, 60, 1, 1" size="240"/>
			<output>
				<port id="0" precision="FP32">
					<dim>1</dim>
					<dim>60</dim>
					<dim>1</dim>
					<dim>1</dim>
				</port>
			</output>
		</layer>
		<layer id="238" name="landmarks_fc_reyebrow_left_y_new" type="Add" version="opset1">
			<data auto_broadcast="numpy"/>
			<input>
				<port id="0" precision="FP32">
					<dim>1</dim>
					<dim>60</dim>
					<dim>1</dim>
					<dim>1</dim>
				</port>
				<port id="1" precision="FP32">
					<dim>1</dim>
					<dim>60</dim>
					<dim>1</dim>
					<dim>1</dim>
				</port>
			</input>
			<output>
				<port id="2" names="landmarks_fc_reyebrow_left_y_new" precision="FP32">
					<dim>1</dim>
					<dim>60</dim>
					<dim>1</dim>
					<dim>1</dim>
				</port>
			</output>
		</layer>
		<layer id="239" name="softmax_landmarks_reyebrow_left_y" type="SoftMax" version="opset1">
			<data axis="1"/>
			<input>
				<port id="0" precision="FP32">
					<dim>1</dim>
					<dim>60</dim>
					<dim>1</dim>
					<dim>1</dim>
				</port>
			</input>
			<output>
				<port id="1" names="softmax_landmarks_reyebrow_left_y" precision="FP32">
					<dim>1</dim>
					<dim>60</dim>
					<dim>1</dim>
					<dim>1</dim>
				</port>
			</output>
		</layer>
		<layer id="240" name="262" type="Const" version="opset1">
			<data element_type="f32" offset="11039384" shape="60, 256, 1, 1" size="61440"/>
			<output>
				<port id="0" precision="FP32">
					<dim>60</dim>
					<dim>256</dim>
					<dim>1</dim>
					<dim>1</dim>
				</port>
			</output>
		</layer>
		<layer id="241" name="landmarks_fc_reyebrow_right_x_new/WithoutBiases" type="Convolution" version="opset1">
			<data auto_pad="explicit" dilations="1, 1" pads_begin="0, 0" pads_end="0, 0" strides="1, 1"/>
			<input>
				<port id="0" precision="FP32">
					<dim>1</dim>
					<dim>256</dim>
					<dim>1</dim>
					<dim>1</dim>
				</port>
				<port id="1" precision="FP32">
					<dim>60</dim>
					<dim>256</dim>
					<dim>1</dim>
					<dim>1</dim>
				</port>
			</input>
			<output>
				<port id="2" precision="FP32">
					<dim>1</dim>
					<dim>60</dim>
					<dim>1</dim>
					<dim>1</dim>
				</port>
			</output>
		</layer>
		<layer id="242" name="landmarks_fc_reyebrow_right_x_new/Dims4651" type="Const" version="opset1">
			<data element_type="f32" offset="11100824" shape="1, 60, 1, 1" size="240"/>
			<output>
				<port id="0" precision="FP32">
					<dim>1</dim>
					<dim>60</dim>
					<dim>1</dim>
					<dim>1</dim>
				</port>
			</output>
		</layer>
		<layer id="243" name="landmarks_fc_reyebrow_right_x_new" type="Add" version="opset1">
			<data auto_broadcast="numpy"/>
			<input>
				<port id="0" precision="FP32">
					<dim>1</dim>
					<dim>60</dim>
					<dim>1</dim>
					<dim>1</dim>
				</port>
				<port id="1" precision="FP32">
					<dim>1</dim>
					<dim>60</dim>
					<dim>1</dim>
					<dim>1</dim>
				</port>
			</input>
			<output>
				<port id="2" names="landmarks_fc_reyebrow_right_x_new" precision="FP32">
					<dim>1</dim>
					<dim>60</dim>
					<dim>1</dim>
					<dim>1</dim>
				</port>
			</output>
		</layer>
		<layer id="244" name="softmax_landmarks_reyebrow_right_x" type="SoftMax" version="opset1">
			<data axis="1"/>
			<input>
				<port id="0" precision="FP32">
					<dim>1</dim>
					<dim>60</dim>
					<dim>1</dim>
					<dim>1</dim>
				</port>
			</input>
			<output>
				<port id="1" names="softmax_landmarks_reyebrow_right_x" precision="FP32">
					<dim>1</dim>
					<dim>60</dim>
					<dim>1</dim>
					<dim>1</dim>
				</port>
			</output>
		</layer>
		<layer id="245" name="312" type="Const" version="opset1">
			<data element_type="f32" offset="11101064" shape="60, 256, 1, 1" size="61440"/>
			<output>
				<port id="0" precision="FP32">
					<dim>60</dim>
					<dim>256</dim>
					<dim>1</dim>
					<dim>1</dim>
				</port>
			</output>
		</layer>
		<layer id="246" name="landmarks_fc_reyebrow_right_y_new/WithoutBiases" type="Convolution" version="opset1">
			<data auto_pad="explicit" dilations="1, 1" pads_begin="0, 0" pads_end="0, 0" strides="1, 1"/>
			<input>
				<port id="0" precision="FP32">
					<dim>1</dim>
					<dim>256</dim>
					<dim>1</dim>
					<dim>1</dim>
				</port>
				<port id="1" precision="FP32">
					<dim>60</dim>
					<dim>256</dim>
					<dim>1</dim>
					<dim>1</dim>
				</port>
			</input>
			<output>
				<port id="2" precision="FP32">
					<dim>1</dim>
					<dim>60</dim>
					<dim>1</dim>
					<dim>1</dim>
				</port>
			</output>
		</layer>
		<layer id="247" name="landmarks_fc_reyebrow_right_y_new/Dims4381" type="Const" version="opset1">
			<data element_type="f32" offset="11162504" shape="1, 60, 1, 1" size="240"/>
			<output>
				<port id="0" precision="FP32">
					<dim>1</dim>
					<dim>60</dim>
					<dim>1</dim>
					<dim>1</dim>
				</port>
			</output>
		</layer>
		<layer id="248" name="landmarks_fc_reyebrow_right_y_new" type="Add" version="opset1">
			<data auto_broadcast="numpy"/>
			<input>
				<port id="0" precision="FP32">
					<dim>1</dim>
					<dim>60</dim>
					<dim>1</dim>
					<dim>1</dim>
				</port>
				<port id="1" precision="FP32">
					<dim>1</dim>
					<dim>60</dim>
					<dim>1</dim>
					<dim>1</dim>
				</port>
			</input>
			<output>
				<port id="2" names="landmarks_fc_reyebrow_right_y_new" precision="FP32">
					<dim>1</dim>
					<dim>60</dim>
					<dim>1</dim>
					<dim>1</dim>
				</port>
			</output>
		</layer>
		<layer id="249" name="softmax_landmarks_reyebrow_right_y" type="SoftMax" version="opset1">
			<data axis="1"/>
			<input>
				<port id="0" precision="FP32">
					<dim>1</dim>
					<dim>60</dim>
					<dim>1</dim>
					<dim>1</dim>
				</port>
			</input>
			<output>
				<port id="1" names="softmax_landmarks_reyebrow_right_y" precision="FP32">
					<dim>1</dim>
					<dim>60</dim>
					<dim>1</dim>
					<dim>1</dim>
				</port>
			</output>
		</layer>
		<layer id="250" name="308" type="Const" version="opset1">
			<data element_type="f32" offset="11162744" shape="60, 256, 1, 1" size="61440"/>
			<output>
				<port id="0" precision="FP32">
					<dim>60</dim>
					<dim>256</dim>
					<dim>1</dim>
					<dim>1</dim>
				</port>
			</output>
		</layer>
		<layer id="251" name="landmarks_fc_reyebrow_center_x_new/WithoutBiases" type="Convolution" version="opset1">
			<data auto_pad="explicit" dilations="1, 1" pads_begin="0, 0" pads_end="0, 0" strides="1, 1"/>
			<input>
				<port id="0" precision="FP32">
					<dim>1</dim>
					<dim>256</dim>
					<dim>1</dim>
					<dim>1</dim>
				</port>
				<port id="1" precision="FP32">
					<dim>60</dim>
					<dim>256</dim>
					<dim>1</dim>
					<dim>1</dim>
				</port>
			</input>
			<output>
				<port id="2" precision="FP32">
					<dim>1</dim>
					<dim>60</dim>
					<dim>1</dim>
					<dim>1</dim>
				</port>
			</output>
		</layer>
		<layer id="252" name="landmarks_fc_reyebrow_center_x_new/Dims4375" type="Const" version="opset1">
			<data element_type="f32" offset="11224184" shape="1, 60, 1, 1" size="240"/>
			<output>
				<port id="0" precision="FP32">
					<dim>1</dim>
					<dim>60</dim>
					<dim>1</dim>
					<dim>1</dim>
				</port>
			</output>
		</layer>
		<layer id="253" name="landmarks_fc_reyebrow_center_x_new" type="Add" version="opset1">
			<data auto_broadcast="numpy"/>
			<input>
				<port id="0" precision="FP32">
					<dim>1</dim>
					<dim>60</dim>
					<dim>1</dim>
					<dim>1</dim>
				</port>
				<port id="1" precision="FP32">
					<dim>1</dim>
					<dim>60</dim>
					<dim>1</dim>
					<dim>1</dim>
				</port>
			</input>
			<output>
				<port id="2" names="landmarks_fc_reyebrow_center_x_new" precision="FP32">
					<dim>1</dim>
					<dim>60</dim>
					<dim>1</dim>
					<dim>1</dim>
				</port>
			</output>
		</layer>
		<layer id="254" name="softmax_landmarks_reyebrow_center_x" type="SoftMax" version="opset1">
			<data axis="1"/>
			<input>
				<port id="0" precision="FP32">
					<dim>1</dim>
					<dim>60</dim>
					<dim>1</dim>
					<dim>1</dim>
				</port>
			</input>
			<output>
				<port id="1" names="softmax_landmarks_reyebrow_center_x" precision="FP32">
					<dim>1</dim>
					<dim>60</dim>
					<dim>1</dim>
					<dim>1</dim>
				</port>
			</output>
		</layer>
		<layer id="255" name="310" type="Const" version="opset1">
			<data element_type="f32" offset="11224424" shape="60, 256, 1, 1" size="61440"/>
			<output>
				<port id="0" precision="FP32">
					<dim>60</dim>
					<dim>256</dim>
					<dim>1</dim>
					<dim>1</dim>
				</port>
			</output>
		</layer>
		<layer id="256" name="landmarks_fc_reyebrow_center_y_new/WithoutBiases" type="Convolution" version="opset1">
			<data auto_pad="explicit" dilations="1, 1" pads_begin="0, 0" pads_end="0, 0" strides="1, 1"/>
			<input>
				<port id="0" precision="FP32">
					<dim>1</dim>
					<dim>256</dim>
					<dim>1</dim>
					<dim>1</dim>
				</port>
				<port id="1" precision="FP32">
					<dim>60</dim>
					<dim>256</dim>
					<dim>1</dim>
					<dim>1</dim>
				</port>
			</input>
			<output>
				<port id="2" precision="FP32">
					<dim>1</dim>
					<dim>60</dim>
					<dim>1</dim>
					<dim>1</dim>
				</port>
			</output>
		</layer>
		<layer id="257" name="landmarks_fc_reyebrow_center_y_new/Dims4669" type="Const" version="opset1">
			<data element_type="f32" offset="11285864" shape="1, 60, 1, 1" size="240"/>
			<output>
				<port id="0" precision="FP32">
					<dim>1</dim>
					<dim>60</dim>
					<dim>1</dim>
					<dim>1</dim>
				</port>
			</output>
		</layer>
		<layer id="258" name="landmarks_fc_reyebrow_center_y_new" type="Add" version="opset1">
			<data auto_broadcast="numpy"/>
			<input>
				<port id="0" precision="FP32">
					<dim>1</dim>
					<dim>60</dim>
					<dim>1</dim>
					<dim>1</dim>
				</port>
				<port id="1" precision="FP32">
					<dim>1</dim>
					<dim>60</dim>
					<dim>1</dim>
					<dim>1</dim>
				</port>
			</input>
			<output>
				<port id="2" names="landmarks_fc_reyebrow_center_y_new" precision="FP32">
					<dim>1</dim>
					<dim>60</dim>
					<dim>1</dim>
					<dim>1</dim>
				</port>
			</output>
		</layer>
		<layer id="259" name="softmax_landmarks_reyebrow_center_y" type="SoftMax" version="opset1">
			<data axis="1"/>
			<input>
				<port id="0" precision="FP32">
					<dim>1</dim>
					<dim>60</dim>
					<dim>1</dim>
					<dim>1</dim>
				</port>
			</input>
			<output>
				<port id="1" names="softmax_landmarks_reyebrow_center_y" precision="FP32">
					<dim>1</dim>
					<dim>60</dim>
					<dim>1</dim>
					<dim>1</dim>
				</port>
			</output>
		</layer>
		<layer id="260" name="bn/landmarks_conv_edge_61/mean/Fused_Mul__copy" type="Const" version="opset1">
			<data element_type="f32" offset="11286104" shape="256, 512, 1, 1" size="524288"/>
			<output>
				<port id="0" precision="FP32">
					<dim>256</dim>
					<dim>512</dim>
					<dim>1</dim>
					<dim>1</dim>
				</port>
			</output>
		</layer>
		<layer id="261" name="landmarks_conv_edge_61/WithoutBiases" type="Convolution" version="opset1">
			<data auto_pad="explicit" dilations="1, 1" pads_begin="0, 0" pads_end="0, 0" strides="1, 1"/>
			<input>
				<port id="0" precision="FP32">
					<dim>1</dim>
					<dim>512</dim>
					<dim>1</dim>
					<dim>1</dim>
				</port>
				<port id="1" precision="FP32">
					<dim>256</dim>
					<dim>512</dim>
					<dim>1</dim>
					<dim>1</dim>
				</port>
			</input>
			<output>
				<port id="2" precision="FP32">
					<dim>1</dim>
					<dim>256</dim>
					<dim>1</dim>
					<dim>1</dim>
				</port>
			</output>
		</layer>
		<layer id="262" name="data_add_75517556" type="Const" version="opset1">
			<data element_type="f32" offset="11810392" shape="1, 256, 1, 1" size="1024"/>
			<output>
				<port id="0" precision="FP32">
					<dim>1</dim>
					<dim>256</dim>
					<dim>1</dim>
					<dim>1</dim>
				</port>
			</output>
		</layer>
		<layer id="263" name="landmarks_conv_edge_61/Fused_Add_" type="Add" version="opset1">
			<data auto_broadcast="numpy"/>
			<input>
				<port id="0" precision="FP32">
					<dim>1</dim>
					<dim>256</dim>
					<dim>1</dim>
					<dim>1</dim>
				</port>
				<port id="1" precision="FP32">
					<dim>1</dim>
					<dim>256</dim>
					<dim>1</dim>
					<dim>1</dim>
				</port>
			</input>
			<output>
				<port id="2" names="landmarks_conv_edge_61" precision="FP32">
					<dim>1</dim>
					<dim>256</dim>
					<dim>1</dim>
					<dim>1</dim>
				</port>
			</output>
		</layer>
		<layer id="264" name="relu_edge_61" type="ReLU" version="opset1">
			<input>
				<port id="0" precision="FP32">
					<dim>1</dim>
					<dim>256</dim>
					<dim>1</dim>
					<dim>1</dim>
				</port>
			</input>
			<output>
				<port id="1" names="landmarks_conv_edge_61" precision="FP32">
					<dim>1</dim>
					<dim>256</dim>
					<dim>1</dim>
					<dim>1</dim>
				</port>
			</output>
		</layer>
		<layer id="265" name="234" type="Const" version="opset1">
			<data element_type="f32" offset="11811416" shape="60, 256, 1, 1" size="61440"/>
			<output>
				<port id="0" precision="FP32">
					<dim>60</dim>
					<dim>256</dim>
					<dim>1</dim>
					<dim>1</dim>
				</port>
			</output>
		</layer>
		<layer id="266" name="landmarks_fc_edge_62_x_new/WithoutBiases" type="Convolution" version="opset1">
			<data auto_pad="explicit" dilations="1, 1" pads_begin="0, 0" pads_end="0, 0" strides="1, 1"/>
			<input>
				<port id="0" precision="FP32">
					<dim>1</dim>
					<dim>256</dim>
					<dim>1</dim>
					<dim>1</dim>
				</port>
				<port id="1" precision="FP32">
					<dim>60</dim>
					<dim>256</dim>
					<dim>1</dim>
					<dim>1</dim>
				</port>
			</input>
			<output>
				<port id="2" precision="FP32">
					<dim>1</dim>
					<dim>60</dim>
					<dim>1</dim>
					<dim>1</dim>
				</port>
			</output>
		</layer>
		<layer id="267" name="landmarks_fc_edge_62_x_new/Dims4627" type="Const" version="opset1">
			<data element_type="f32" offset="11872856" shape="1, 60, 1, 1" size="240"/>
			<output>
				<port id="0" precision="FP32">
					<dim>1</dim>
					<dim>60</dim>
					<dim>1</dim>
					<dim>1</dim>
				</port>
			</output>
		</layer>
		<layer id="268" name="landmarks_fc_edge_62_x_new" type="Add" version="opset1">
			<data auto_broadcast="numpy"/>
			<input>
				<port id="0" precision="FP32">
					<dim>1</dim>
					<dim>60</dim>
					<dim>1</dim>
					<dim>1</dim>
				</port>
				<port id="1" precision="FP32">
					<dim>1</dim>
					<dim>60</dim>
					<dim>1</dim>
					<dim>1</dim>
				</port>
			</input>
			<output>
				<port id="2" names="landmarks_fc_edge_62_x_new" precision="FP32">
					<dim>1</dim>
					<dim>60</dim>
					<dim>1</dim>
					<dim>1</dim>
				</port>
			</output>
		</layer>
		<layer id="269" name="softmax_landmarks_edge_62_x" type="SoftMax" version="opset1">
			<data axis="1"/>
			<input>
				<port id="0" precision="FP32">
					<dim>1</dim>
					<dim>60</dim>
					<dim>1</dim>
					<dim>1</dim>
				</port>
			</input>
			<output>
				<port id="1" names="softmax_landmarks_edge_62_x" precision="FP32">
					<dim>1</dim>
					<dim>60</dim>
					<dim>1</dim>
					<dim>1</dim>
				</port>
			</output>
		</layer>
		<layer id="270" name="398" type="Const" version="opset1">
			<data element_type="f32" offset="11873096" shape="60, 256, 1, 1" size="61440"/>
			<output>
				<port id="0" precision="FP32">
					<dim>60</dim>
					<dim>256</dim>
					<dim>1</dim>
					<dim>1</dim>
				</port>
			</output>
		</layer>
		<layer id="271" name="landmarks_fc_edge_62_y_new/WithoutBiases" type="Convolution" version="opset1">
			<data auto_pad="explicit" dilations="1, 1" pads_begin="0, 0" pads_end="0, 0" strides="1, 1"/>
			<input>
				<port id="0" precision="FP32">
					<dim>1</dim>
					<dim>256</dim>
					<dim>1</dim>
					<dim>1</dim>
				</port>
				<port id="1" precision="FP32">
					<dim>60</dim>
					<dim>256</dim>
					<dim>1</dim>
					<dim>1</dim>
				</port>
			</input>
			<output>
				<port id="2" precision="FP32">
					<dim>1</dim>
					<dim>60</dim>
					<dim>1</dim>
					<dim>1</dim>
				</port>
			</output>
		</layer>
		<layer id="272" name="landmarks_fc_edge_62_y_new/Dims4579" type="Const" version="opset1">
			<data element_type="f32" offset="11934536" shape="1, 60, 1, 1" size="240"/>
			<output>
				<port id="0" precision="FP32">
					<dim>1</dim>
					<dim>60</dim>
					<dim>1</dim>
					<dim>1</dim>
				</port>
			</output>
		</layer>
		<layer id="273" name="landmarks_fc_edge_62_y_new" type="Add" version="opset1">
			<data auto_broadcast="numpy"/>
			<input>
				<port id="0" precision="FP32">
					<dim>1</dim>
					<dim>60</dim>
					<dim>1</dim>
					<dim>1</dim>
				</port>
				<port id="1" precision="FP32">
					<dim>1</dim>
					<dim>60</dim>
					<dim>1</dim>
					<dim>1</dim>
				</port>
			</input>
			<output>
				<port id="2" names="landmarks_fc_edge_62_y_new" precision="FP32">
					<dim>1</dim>
					<dim>60</dim>
					<dim>1</dim>
					<dim>1</dim>
				</port>
			</output>
		</layer>
		<layer id="274" name="softmax_landmarks_edge_62_y" type="SoftMax" version="opset1">
			<data axis="1"/>
			<input>
				<port id="0" precision="FP32">
					<dim>1</dim>
					<dim>60</dim>
					<dim>1</dim>
					<dim>1</dim>
				</port>
			</input>
			<output>
				<port id="1" names="softmax_landmarks_edge_62_y" precision="FP32">
					<dim>1</dim>
					<dim>60</dim>
					<dim>1</dim>
					<dim>1</dim>
				</port>
			</output>
		</layer>
		<layer id="275" name="400" type="Const" version="opset1">
			<data element_type="f32" offset="11934776" shape="60, 256, 1, 1" size="61440"/>
			<output>
				<port id="0" precision="FP32">
					<dim>60</dim>
					<dim>256</dim>
					<dim>1</dim>
					<dim>1</dim>
				</port>
			</output>
		</layer>
		<layer id="276" name="landmarks_fc_edge_69_x_new/WithoutBiases" type="Convolution" version="opset1">
			<data auto_pad="explicit" dilations="1, 1" pads_begin="0, 0" pads_end="0, 0" strides="1, 1"/>
			<input>
				<port id="0" precision="FP32">
					<dim>1</dim>
					<dim>256</dim>
					<dim>1</dim>
					<dim>1</dim>
				</port>
				<port id="1" precision="FP32">
					<dim>60</dim>
					<dim>256</dim>
					<dim>1</dim>
					<dim>1</dim>
				</port>
			</input>
			<output>
				<port id="2" precision="FP32">
					<dim>1</dim>
					<dim>60</dim>
					<dim>1</dim>
					<dim>1</dim>
				</port>
			</output>
		</layer>
		<layer id="277" name="landmarks_fc_edge_69_x_new/Dims4441" type="Const" version="opset1">
			<data element_type="f32" offset="11996216" shape="1, 60, 1, 1" size="240"/>
			<output>
				<port id="0" precision="FP32">
					<dim>1</dim>
					<dim>60</dim>
					<dim>1</dim>
					<dim>1</dim>
				</port>
			</output>
		</layer>
		<layer id="278" name="landmarks_fc_edge_69_x_new" type="Add" version="opset1">
			<data auto_broadcast="numpy"/>
			<input>
				<port id="0" precision="FP32">
					<dim>1</dim>
					<dim>60</dim>
					<dim>1</dim>
					<dim>1</dim>
				</port>
				<port id="1" precision="FP32">
					<dim>1</dim>
					<dim>60</dim>
					<dim>1</dim>
					<dim>1</dim>
				</port>
			</input>
			<output>
				<port id="2" names="landmarks_fc_edge_69_x_new" precision="FP32">
					<dim>1</dim>
					<dim>60</dim>
					<dim>1</dim>
					<dim>1</dim>
				</port>
			</output>
		</layer>
		<layer id="279" name="softmax_landmarks_edge_69_x" type="SoftMax" version="opset1">
			<data axis="1"/>
			<input>
				<port id="0" precision="FP32">
					<dim>1</dim>
					<dim>60</dim>
					<dim>1</dim>
					<dim>1</dim>
				</port>
			</input>
			<output>
				<port id="1" names="softmax_landmarks_edge_69_x" precision="FP32">
					<dim>1</dim>
					<dim>60</dim>
					<dim>1</dim>
					<dim>1</dim>
				</port>
			</output>
		</layer>
		<layer id="280" name="378" type="Const" version="opset1">
			<data element_type="f32" offset="11996456" shape="60, 256, 1, 1" size="61440"/>
			<output>
				<port id="0" precision="FP32">
					<dim>60</dim>
					<dim>256</dim>
					<dim>1</dim>
					<dim>1</dim>
				</port>
			</output>
		</layer>
		<layer id="281" name="landmarks_fc_edge_69_y_new/WithoutBiases" type="Convolution" version="opset1">
			<data auto_pad="explicit" dilations="1, 1" pads_begin="0, 0" pads_end="0, 0" strides="1, 1"/>
			<input>
				<port id="0" precision="FP32">
					<dim>1</dim>
					<dim>256</dim>
					<dim>1</dim>
					<dim>1</dim>
				</port>
				<port id="1" precision="FP32">
					<dim>60</dim>
					<dim>256</dim>
					<dim>1</dim>
					<dim>1</dim>
				</port>
			</input>
			<output>
				<port id="2" precision="FP32">
					<dim>1</dim>
					<dim>60</dim>
					<dim>1</dim>
					<dim>1</dim>
				</port>
			</output>
		</layer>
		<layer id="282" name="landmarks_fc_edge_69_y_new/Dims4567" type="Const" version="opset1">
			<data element_type="f32" offset="12057896" shape="1, 60, 1, 1" size="240"/>
			<output>
				<port id="0" precision="FP32">
					<dim>1</dim>
					<dim>60</dim>
					<dim>1</dim>
					<dim>1</dim>
				</port>
			</output>
		</layer>
		<layer id="283" name="landmarks_fc_edge_69_y_new" type="Add" version="opset1">
			<data auto_broadcast="numpy"/>
			<input>
				<port id="0" precision="FP32">
					<dim>1</dim>
					<dim>60</dim>
					<dim>1</dim>
					<dim>1</dim>
				</port>
				<port id="1" precision="FP32">
					<dim>1</dim>
					<dim>60</dim>
					<dim>1</dim>
					<dim>1</dim>
				</port>
			</input>
			<output>
				<port id="2" names="landmarks_fc_edge_69_y_new" precision="FP32">
					<dim>1</dim>
					<dim>60</dim>
					<dim>1</dim>
					<dim>1</dim>
				</port>
			</output>
		</layer>
		<layer id="284" name="softmax_landmarks_edge_69_y" type="SoftMax" version="opset1">
			<data axis="1"/>
			<input>
				<port id="0" precision="FP32">
					<dim>1</dim>
					<dim>60</dim>
					<dim>1</dim>
					<dim>1</dim>
				</port>
			</input>
			<output>
				<port id="1" names="softmax_landmarks_edge_69_y" precision="FP32">
					<dim>1</dim>
					<dim>60</dim>
					<dim>1</dim>
					<dim>1</dim>
				</port>
			</output>
		</layer>
		<layer id="285" name="342" type="Const" version="opset1">
			<data element_type="f32" offset="12058136" shape="60, 256, 1, 1" size="61440"/>
			<output>
				<port id="0" precision="FP32">
					<dim>60</dim>
					<dim>256</dim>
					<dim>1</dim>
					<dim>1</dim>
				</port>
			</output>
		</layer>
		<layer id="286" name="landmarks_fc_edge_55_x_new/WithoutBiases" type="Convolution" version="opset1">
			<data auto_pad="explicit" dilations="1, 1" pads_begin="0, 0" pads_end="0, 0" strides="1, 1"/>
			<input>
				<port id="0" precision="FP32">
					<dim>1</dim>
					<dim>256</dim>
					<dim>1</dim>
					<dim>1</dim>
				</port>
				<port id="1" precision="FP32">
					<dim>60</dim>
					<dim>256</dim>
					<dim>1</dim>
					<dim>1</dim>
				</port>
			</input>
			<output>
				<port id="2" precision="FP32">
					<dim>1</dim>
					<dim>60</dim>
					<dim>1</dim>
					<dim>1</dim>
				</port>
			</output>
		</layer>
		<layer id="287" name="landmarks_fc_edge_55_x_new/Dims4837" type="Const" version="opset1">
			<data element_type="f32" offset="12119576" shape="1, 60, 1, 1" size="240"/>
			<output>
				<port id="0" precision="FP32">
					<dim>1</dim>
					<dim>60</dim>
					<dim>1</dim>
					<dim>1</dim>
				</port>
			</output>
		</layer>
		<layer id="288" name="landmarks_fc_edge_55_x_new" type="Add" version="opset1">
			<data auto_broadcast="numpy"/>
			<input>
				<port id="0" precision="FP32">
					<dim>1</dim>
					<dim>60</dim>
					<dim>1</dim>
					<dim>1</dim>
				</port>
				<port id="1" precision="FP32">
					<dim>1</dim>
					<dim>60</dim>
					<dim>1</dim>
					<dim>1</dim>
				</port>
			</input>
			<output>
				<port id="2" names="landmarks_fc_edge_55_x_new" precision="FP32">
					<dim>1</dim>
					<dim>60</dim>
					<dim>1</dim>
					<dim>1</dim>
				</port>
			</output>
		</layer>
		<layer id="289" name="softmax_landmarks_edge_55_x" type="SoftMax" version="opset1">
			<data axis="1"/>
			<input>
				<port id="0" precision="FP32">
					<dim>1</dim>
					<dim>60</dim>
					<dim>1</dim>
					<dim>1</dim>
				</port>
			</input>
			<output>
				<port id="1" names="softmax_landmarks_edge_55_x" precision="FP32">
					<dim>1</dim>
					<dim>60</dim>
					<dim>1</dim>
					<dim>1</dim>
				</port>
			</output>
		</layer>
		<layer id="290" name="282" type="Const" version="opset1">
			<data element_type="f32" offset="12119816" shape="60, 256, 1, 1" size="61440"/>
			<output>
				<port id="0" precision="FP32">
					<dim>60</dim>
					<dim>256</dim>
					<dim>1</dim>
					<dim>1</dim>
				</port>
			</output>
		</layer>
		<layer id="291" name="landmarks_fc_edge_55_y_new/WithoutBiases" type="Convolution" version="opset1">
			<data auto_pad="explicit" dilations="1, 1" pads_begin="0, 0" pads_end="0, 0" strides="1, 1"/>
			<input>
				<port id="0" precision="FP32">
					<dim>1</dim>
					<dim>256</dim>
					<dim>1</dim>
					<dim>1</dim>
				</port>
				<port id="1" precision="FP32">
					<dim>60</dim>
					<dim>256</dim>
					<dim>1</dim>
					<dim>1</dim>
				</port>
			</input>
			<output>
				<port id="2" precision="FP32">
					<dim>1</dim>
					<dim>60</dim>
					<dim>1</dim>
					<dim>1</dim>
				</port>
			</output>
		</layer>
		<layer id="292" name="landmarks_fc_edge_55_y_new/Dims4807" type="Const" version="opset1">
			<data element_type="f32" offset="12181256" shape="1, 60, 1, 1" size="240"/>
			<output>
				<port id="0" precision="FP32">
					<dim>1</dim>
					<dim>60</dim>
					<dim>1</dim>
					<dim>1</dim>
				</port>
			</output>
		</layer>
		<layer id="293" name="landmarks_fc_edge_55_y_new" type="Add" version="opset1">
			<data auto_broadcast="numpy"/>
			<input>
				<port id="0" precision="FP32">
					<dim>1</dim>
					<dim>60</dim>
					<dim>1</dim>
					<dim>1</dim>
				</port>
				<port id="1" precision="FP32">
					<dim>1</dim>
					<dim>60</dim>
					<dim>1</dim>
					<dim>1</dim>
				</port>
			</input>
			<output>
				<port id="2" names="landmarks_fc_edge_55_y_new" precision="FP32">
					<dim>1</dim>
					<dim>60</dim>
					<dim>1</dim>
					<dim>1</dim>
				</port>
			</output>
		</layer>
		<layer id="294" name="softmax_landmarks_edge_55_y" type="SoftMax" version="opset1">
			<data axis="1"/>
			<input>
				<port id="0" precision="FP32">
					<dim>1</dim>
					<dim>60</dim>
					<dim>1</dim>
					<dim>1</dim>
				</port>
			</input>
			<output>
				<port id="1" names="softmax_landmarks_edge_55_y" precision="FP32">
					<dim>1</dim>
					<dim>60</dim>
					<dim>1</dim>
					<dim>1</dim>
				</port>
			</output>
		</layer>
		<layer id="295" name="406" type="Const" version="opset1">
			<data element_type="f32" offset="12181496" shape="60, 256, 1, 1" size="61440"/>
			<output>
				<port id="0" precision="FP32">
					<dim>60</dim>
					<dim>256</dim>
					<dim>1</dim>
					<dim>1</dim>
				</port>
			</output>
		</layer>
		<layer id="296" name="landmarks_fc_edge_64_x_new/WithoutBiases" type="Convolution" version="opset1">
			<data auto_pad="explicit" dilations="1, 1" pads_begin="0, 0" pads_end="0, 0" strides="1, 1"/>
			<input>
				<port id="0" precision="FP32">
					<dim>1</dim>
					<dim>256</dim>
					<dim>1</dim>
					<dim>1</dim>
				</port>
				<port id="1" precision="FP32">
					<dim>60</dim>
					<dim>256</dim>
					<dim>1</dim>
					<dim>1</dim>
				</port>
			</input>
			<output>
				<port id="2" precision="FP32">
					<dim>1</dim>
					<dim>60</dim>
					<dim>1</dim>
					<dim>1</dim>
				</port>
			</output>
		</layer>
		<layer id="297" name="landmarks_fc_edge_64_x_new/Dims4453" type="Const" version="opset1">
			<data element_type="f32" offset="12242936" shape="1, 60, 1, 1" size="240"/>
			<output>
				<port id="0" precision="FP32">
					<dim>1</dim>
					<dim>60</dim>
					<dim>1</dim>
					<dim>1</dim>
				</port>
			</output>
		</layer>
		<layer id="298" name="landmarks_fc_edge_64_x_new" type="Add" version="opset1">
			<data auto_broadcast="numpy"/>
			<input>
				<port id="0" precision="FP32">
					<dim>1</dim>
					<dim>60</dim>
					<dim>1</dim>
					<dim>1</dim>
				</port>
				<port id="1" precision="FP32">
					<dim>1</dim>
					<dim>60</dim>
					<dim>1</dim>
					<dim>1</dim>
				</port>
			</input>
			<output>
				<port id="2" names="landmarks_fc_edge_64_x_new" precision="FP32">
					<dim>1</dim>
					<dim>60</dim>
					<dim>1</dim>
					<dim>1</dim>
				</port>
			</output>
		</layer>
		<layer id="299" name="softmax_landmarks_edge_64_x" type="SoftMax" version="opset1">
			<data axis="1"/>
			<input>
				<port id="0" precision="FP32">
					<dim>1</dim>
					<dim>60</dim>
					<dim>1</dim>
					<dim>1</dim>
				</port>
			</input>
			<output>
				<port id="1" names="softmax_landmarks_edge_64_x" precision="FP32">
					<dim>1</dim>
					<dim>60</dim>
					<dim>1</dim>
					<dim>1</dim>
				</port>
			</output>
		</layer>
		<layer id="300" name="264" type="Const" version="opset1">
			<data element_type="f32" offset="12243176" shape="60, 256, 1, 1" size="61440"/>
			<output>
				<port id="0" precision="FP32">
					<dim>60</dim>
					<dim>256</dim>
					<dim>1</dim>
					<dim>1</dim>
				</port>
			</output>
		</layer>
		<layer id="301" name="landmarks_fc_edge_64_y_new/WithoutBiases" type="Convolution" version="opset1">
			<data auto_pad="explicit" dilations="1, 1" pads_begin="0, 0" pads_end="0, 0" strides="1, 1"/>
			<input>
				<port id="0" precision="FP32">
					<dim>1</dim>
					<dim>256</dim>
					<dim>1</dim>
					<dim>1</dim>
				</port>
				<port id="1" precision="FP32">
					<dim>60</dim>
					<dim>256</dim>
					<dim>1</dim>
					<dim>1</dim>
				</port>
			</input>
			<output>
				<port id="2" precision="FP32">
					<dim>1</dim>
					<dim>60</dim>
					<dim>1</dim>
					<dim>1</dim>
				</port>
			</output>
		</layer>
		<layer id="302" name="landmarks_fc_edge_64_y_new/Dims4795" type="Const" version="opset1">
			<data element_type="f32" offset="12304616" shape="1, 60, 1, 1" size="240"/>
			<output>
				<port id="0" precision="FP32">
					<dim>1</dim>
					<dim>60</dim>
					<dim>1</dim>
					<dim>1</dim>
				</port>
			</output>
		</layer>
		<layer id="303" name="landmarks_fc_edge_64_y_new" type="Add" version="opset1">
			<data auto_broadcast="numpy"/>
			<input>
				<port id="0" precision="FP32">
					<dim>1</dim>
					<dim>60</dim>
					<dim>1</dim>
					<dim>1</dim>
				</port>
				<port id="1" precision="FP32">
					<dim>1</dim>
					<dim>60</dim>
					<dim>1</dim>
					<dim>1</dim>
				</port>
			</input>
			<output>
				<port id="2" names="landmarks_fc_edge_64_y_new" precision="FP32">
					<dim>1</dim>
					<dim>60</dim>
					<dim>1</dim>
					<dim>1</dim>
				</port>
			</output>
		</layer>
		<layer id="304" name="softmax_landmarks_edge_64_y" type="SoftMax" version="opset1">
			<data axis="1"/>
			<input>
				<port id="0" precision="FP32">
					<dim>1</dim>
					<dim>60</dim>
					<dim>1</dim>
					<dim>1</dim>
				</port>
			</input>
			<output>
				<port id="1" names="softmax_landmarks_edge_64_y" precision="FP32">
					<dim>1</dim>
					<dim>60</dim>
					<dim>1</dim>
					<dim>1</dim>
				</port>
			</output>
		</layer>
		<layer id="305" name="228" type="Const" version="opset1">
			<data element_type="f32" offset="12304856" shape="60, 256, 1, 1" size="61440"/>
			<output>
				<port id="0" precision="FP32">
					<dim>60</dim>
					<dim>256</dim>
					<dim>1</dim>
					<dim>1</dim>
				</port>
			</output>
		</layer>
		<layer id="306" name="landmarks_fc_edge_63_x_new/WithoutBiases" type="Convolution" version="opset1">
			<data auto_pad="explicit" dilations="1, 1" pads_begin="0, 0" pads_end="0, 0" strides="1, 1"/>
			<input>
				<port id="0" precision="FP32">
					<dim>1</dim>
					<dim>256</dim>
					<dim>1</dim>
					<dim>1</dim>
				</port>
				<port id="1" precision="FP32">
					<dim>60</dim>
					<dim>256</dim>
					<dim>1</dim>
					<dim>1</dim>
				</port>
			</input>
			<output>
				<port id="2" precision="FP32">
					<dim>1</dim>
					<dim>60</dim>
					<dim>1</dim>
					<dim>1</dim>
				</port>
			</output>
		</layer>
		<layer id="307" name="landmarks_fc_edge_63_x_new/Dims4621" type="Const" version="opset1">
			<data element_type="f32" offset="12366296" shape="1, 60, 1, 1" size="240"/>
			<output>
				<port id="0" precision="FP32">
					<dim>1</dim>
					<dim>60</dim>
					<dim>1</dim>
					<dim>1</dim>
				</port>
			</output>
		</layer>
		<layer id="308" name="landmarks_fc_edge_63_x_new" type="Add" version="opset1">
			<data auto_broadcast="numpy"/>
			<input>
				<port id="0" precision="FP32">
					<dim>1</dim>
					<dim>60</dim>
					<dim>1</dim>
					<dim>1</dim>
				</port>
				<port id="1" precision="FP32">
					<dim>1</dim>
					<dim>60</dim>
					<dim>1</dim>
					<dim>1</dim>
				</port>
			</input>
			<output>
				<port id="2" names="landmarks_fc_edge_63_x_new" precision="FP32">
					<dim>1</dim>
					<dim>60</dim>
					<dim>1</dim>
					<dim>1</dim>
				</port>
			</output>
		</layer>
		<layer id="309" name="softmax_landmarks_edge_63_x" type="SoftMax" version="opset1">
			<data axis="1"/>
			<input>
				<port id="0" precision="FP32">
					<dim>1</dim>
					<dim>60</dim>
					<dim>1</dim>
					<dim>1</dim>
				</port>
			</input>
			<output>
				<port id="1" names="softmax_landmarks_edge_63_x" precision="FP32">
					<dim>1</dim>
					<dim>60</dim>
					<dim>1</dim>
					<dim>1</dim>
				</port>
			</output>
		</layer>
		<layer id="310" name="358" type="Const" version="opset1">
			<data element_type="f32" offset="12366536" shape="60, 256, 1, 1" size="61440"/>
			<output>
				<port id="0" precision="FP32">
					<dim>60</dim>
					<dim>256</dim>
					<dim>1</dim>
					<dim>1</dim>
				</port>
			</output>
		</layer>
		<layer id="311" name="landmarks_fc_edge_63_y_new/WithoutBiases" type="Convolution" version="opset1">
			<data auto_pad="explicit" dilations="1, 1" pads_begin="0, 0" pads_end="0, 0" strides="1, 1"/>
			<input>
				<port id="0" precision="FP32">
					<dim>1</dim>
					<dim>256</dim>
					<dim>1</dim>
					<dim>1</dim>
				</port>
				<port id="1" precision="FP32">
					<dim>60</dim>
					<dim>256</dim>
					<dim>1</dim>
					<dim>1</dim>
				</port>
			</input>
			<output>
				<port id="2" precision="FP32">
					<dim>1</dim>
					<dim>60</dim>
					<dim>1</dim>
					<dim>1</dim>
				</port>
			</output>
		</layer>
		<layer id="312" name="landmarks_fc_edge_63_y_new/Dims4549" type="Const" version="opset1">
			<data element_type="f32" offset="12427976" shape="1, 60, 1, 1" size="240"/>
			<output>
				<port id="0" precision="FP32">
					<dim>1</dim>
					<dim>60</dim>
					<dim>1</dim>
					<dim>1</dim>
				</port>
			</output>
		</layer>
		<layer id="313" name="landmarks_fc_edge_63_y_new" type="Add" version="opset1">
			<data auto_broadcast="numpy"/>
			<input>
				<port id="0" precision="FP32">
					<dim>1</dim>
					<dim>60</dim>
					<dim>1</dim>
					<dim>1</dim>
				</port>
				<port id="1" precision="FP32">
					<dim>1</dim>
					<dim>60</dim>
					<dim>1</dim>
					<dim>1</dim>
				</port>
			</input>
			<output>
				<port id="2" names="landmarks_fc_edge_63_y_new" precision="FP32">
					<dim>1</dim>
					<dim>60</dim>
					<dim>1</dim>
					<dim>1</dim>
				</port>
			</output>
		</layer>
		<layer id="314" name="softmax_landmarks_edge_63_y" type="SoftMax" version="opset1">
			<data axis="1"/>
			<input>
				<port id="0" precision="FP32">
					<dim>1</dim>
					<dim>60</dim>
					<dim>1</dim>
					<dim>1</dim>
				</port>
			</input>
			<output>
				<port id="1" names="softmax_landmarks_edge_63_y" precision="FP32">
					<dim>1</dim>
					<dim>60</dim>
					<dim>1</dim>
					<dim>1</dim>
				</port>
			</output>
		</layer>
		<layer id="315" name="382" type="Const" version="opset1">
			<data element_type="f32" offset="12428216" shape="60, 256, 1, 1" size="61440"/>
			<output>
				<port id="0" precision="FP32">
					<dim>60</dim>
					<dim>256</dim>
					<dim>1</dim>
					<dim>1</dim>
				</port>
			</output>
		</layer>
		<layer id="316" name="landmarks_fc_edge_58_x_new/WithoutBiases" type="Convolution" version="opset1">
			<data auto_pad="explicit" dilations="1, 1" pads_begin="0, 0" pads_end="0, 0" strides="1, 1"/>
			<input>
				<port id="0" precision="FP32">
					<dim>1</dim>
					<dim>256</dim>
					<dim>1</dim>
					<dim>1</dim>
				</port>
				<port id="1" precision="FP32">
					<dim>60</dim>
					<dim>256</dim>
					<dim>1</dim>
					<dim>1</dim>
				</port>
			</input>
			<output>
				<port id="2" precision="FP32">
					<dim>1</dim>
					<dim>60</dim>
					<dim>1</dim>
					<dim>1</dim>
				</port>
			</output>
		</layer>
		<layer id="317" name="landmarks_fc_edge_58_x_new/Dims4417" type="Const" version="opset1">
			<data element_type="f32" offset="12489656" shape="1, 60, 1, 1" size="240"/>
			<output>
				<port id="0" precision="FP32">
					<dim>1</dim>
					<dim>60</dim>
					<dim>1</dim>
					<dim>1</dim>
				</port>
			</output>
		</layer>
		<layer id="318" name="landmarks_fc_edge_58_x_new" type="Add" version="opset1">
			<data auto_broadcast="numpy"/>
			<input>
				<port id="0" precision="FP32">
					<dim>1</dim>
					<dim>60</dim>
					<dim>1</dim>
					<dim>1</dim>
				</port>
				<port id="1" precision="FP32">
					<dim>1</dim>
					<dim>60</dim>
					<dim>1</dim>
					<dim>1</dim>
				</port>
			</input>
			<output>
				<port id="2" names="landmarks_fc_edge_58_x_new" precision="FP32">
					<dim>1</dim>
					<dim>60</dim>
					<dim>1</dim>
					<dim>1</dim>
				</port>
			</output>
		</layer>
		<layer id="319" name="softmax_landmarks_edge_58_x" type="SoftMax" version="opset1">
			<data axis="1"/>
			<input>
				<port id="0" precision="FP32">
					<dim>1</dim>
					<dim>60</dim>
					<dim>1</dim>
					<dim>1</dim>
				</port>
			</input>
			<output>
				<port id="1" names="softmax_landmarks_edge_58_x" precision="FP32">
					<dim>1</dim>
					<dim>60</dim>
					<dim>1</dim>
					<dim>1</dim>
				</port>
			</output>
		</layer>
		<layer id="320" name="218" type="Const" version="opset1">
			<data element_type="f32" offset="12489896" shape="60, 256, 1, 1" size="61440"/>
			<output>
				<port id="0" precision="FP32">
					<dim>60</dim>
					<dim>256</dim>
					<dim>1</dim>
					<dim>1</dim>
				</port>
			</output>
		</layer>
		<layer id="321" name="landmarks_fc_edge_58_y_new/WithoutBiases" type="Convolution" version="opset1">
			<data auto_pad="explicit" dilations="1, 1" pads_begin="0, 0" pads_end="0, 0" strides="1, 1"/>
			<input>
				<port id="0" precision="FP32">
					<dim>1</dim>
					<dim>256</dim>
					<dim>1</dim>
					<dim>1</dim>
				</port>
				<port id="1" precision="FP32">
					<dim>60</dim>
					<dim>256</dim>
					<dim>1</dim>
					<dim>1</dim>
				</port>
			</input>
			<output>
				<port id="2" precision="FP32">
					<dim>1</dim>
					<dim>60</dim>
					<dim>1</dim>
					<dim>1</dim>
				</port>
			</output>
		</layer>
		<layer id="322" name="landmarks_fc_edge_58_y_new/Dims4615" type="Const" version="opset1">
			<data element_type="f32" offset="12551336" shape="1, 60, 1, 1" size="240"/>
			<output>
				<port id="0" precision="FP32">
					<dim>1</dim>
					<dim>60</dim>
					<dim>1</dim>
					<dim>1</dim>
				</port>
			</output>
		</layer>
		<layer id="323" name="landmarks_fc_edge_58_y_new" type="Add" version="opset1">
			<data auto_broadcast="numpy"/>
			<input>
				<port id="0" precision="FP32">
					<dim>1</dim>
					<dim>60</dim>
					<dim>1</dim>
					<dim>1</dim>
				</port>
				<port id="1" precision="FP32">
					<dim>1</dim>
					<dim>60</dim>
					<dim>1</dim>
					<dim>1</dim>
				</port>
			</input>
			<output>
				<port id="2" names="landmarks_fc_edge_58_y_new" precision="FP32">
					<dim>1</dim>
					<dim>60</dim>
					<dim>1</dim>
					<dim>1</dim>
				</port>
			</output>
		</layer>
		<layer id="324" name="softmax_landmarks_edge_58_y" type="SoftMax" version="opset1">
			<data axis="1"/>
			<input>
				<port id="0" precision="FP32">
					<dim>1</dim>
					<dim>60</dim>
					<dim>1</dim>
					<dim>1</dim>
				</port>
			</input>
			<output>
				<port id="1" names="softmax_landmarks_edge_58_y" precision="FP32">
					<dim>1</dim>
					<dim>60</dim>
					<dim>1</dim>
					<dim>1</dim>
				</port>
			</output>
		</layer>
		<layer id="325" name="380" type="Const" version="opset1">
			<data element_type="f32" offset="12551576" shape="60, 256, 1, 1" size="61440"/>
			<output>
				<port id="0" precision="FP32">
					<dim>60</dim>
					<dim>256</dim>
					<dim>1</dim>
					<dim>1</dim>
				</port>
			</output>
		</layer>
		<layer id="326" name="landmarks_fc_edge_60_x_new/WithoutBiases" type="Convolution" version="opset1">
			<data auto_pad="explicit" dilations="1, 1" pads_begin="0, 0" pads_end="0, 0" strides="1, 1"/>
			<input>
				<port id="0" precision="FP32">
					<dim>1</dim>
					<dim>256</dim>
					<dim>1</dim>
					<dim>1</dim>
				</port>
				<port id="1" precision="FP32">
					<dim>60</dim>
					<dim>256</dim>
					<dim>1</dim>
					<dim>1</dim>
				</port>
			</input>
			<output>
				<port id="2" precision="FP32">
					<dim>1</dim>
					<dim>60</dim>
					<dim>1</dim>
					<dim>1</dim>
				</port>
			</output>
		</layer>
		<layer id="327" name="landmarks_fc_edge_60_x_new/Dims4699" type="Const" version="opset1">
			<data element_type="f32" offset="12613016" shape="1, 60, 1, 1" size="240"/>
			<output>
				<port id="0" precision="FP32">
					<dim>1</dim>
					<dim>60</dim>
					<dim>1</dim>
					<dim>1</dim>
				</port>
			</output>
		</layer>
		<layer id="328" name="landmarks_fc_edge_60_x_new" type="Add" version="opset1">
			<data auto_broadcast="numpy"/>
			<input>
				<port id="0" precision="FP32">
					<dim>1</dim>
					<dim>60</dim>
					<dim>1</dim>
					<dim>1</dim>
				</port>
				<port id="1" precision="FP32">
					<dim>1</dim>
					<dim>60</dim>
					<dim>1</dim>
					<dim>1</dim>
				</port>
			</input>
			<output>
				<port id="2" names="landmarks_fc_edge_60_x_new" precision="FP32">
					<dim>1</dim>
					<dim>60</dim>
					<dim>1</dim>
					<dim>1</dim>
				</port>
			</output>
		</layer>
		<layer id="329" name="softmax_landmarks_edge_60_x" type="SoftMax" version="opset1">
			<data axis="1"/>
			<input>
				<port id="0" precision="FP32">
					<dim>1</dim>
					<dim>60</dim>
					<dim>1</dim>
					<dim>1</dim>
				</port>
			</input>
			<output>
				<port id="1" names="softmax_landmarks_edge_60_x" precision="FP32">
					<dim>1</dim>
					<dim>60</dim>
					<dim>1</dim>
					<dim>1</dim>
				</port>
			</output>
		</layer>
		<layer id="330" name="436" type="Const" version="opset1">
			<data element_type="f32" offset="12613256" shape="60, 256, 1, 1" size="61440"/>
			<output>
				<port id="0" precision="FP32">
					<dim>60</dim>
					<dim>256</dim>
					<dim>1</dim>
					<dim>1</dim>
				</port>
			</output>
		</layer>
		<layer id="331" name="landmarks_fc_edge_60_y_new/WithoutBiases" type="Convolution" version="opset1">
			<data auto_pad="explicit" dilations="1, 1" pads_begin="0, 0" pads_end="0, 0" strides="1, 1"/>
			<input>
				<port id="0" precision="FP32">
					<dim>1</dim>
					<dim>256</dim>
					<dim>1</dim>
					<dim>1</dim>
				</port>
				<port id="1" precision="FP32">
					<dim>60</dim>
					<dim>256</dim>
					<dim>1</dim>
					<dim>1</dim>
				</port>
			</input>
			<output>
				<port id="2" precision="FP32">
					<dim>1</dim>
					<dim>60</dim>
					<dim>1</dim>
					<dim>1</dim>
				</port>
			</output>
		</layer>
		<layer id="332" name="landmarks_fc_edge_60_y_new/Dims4735" type="Const" version="opset1">
			<data element_type="f32" offset="12674696" shape="1, 60, 1, 1" size="240"/>
			<output>
…
				<port id="60" precision="FP32">
					<dim>1</dim>
					<dim>60</dim>
					<dim>1</dim>
					<dim>1</dim>
				</port>
				<port id="61" precision="FP32">
					<dim>1</dim>
					<dim>60</dim>
					<dim>1</dim>
					<dim>1</dim>
				</port>
				<port id="62" precision="FP32">
					<dim>1</dim>
					<dim>60</dim>
					<dim>1</dim>
					<dim>1</dim>
				</port>
				<port id="63" precision="FP32">
					<dim>1</dim>
					<dim>60</dim>
					<dim>1</dim>
					<dim>1</dim>
				</port>
				<port id="64" precision="FP32">
					<dim>1</dim>
					<dim>60</dim>
					<dim>1</dim>
					<dim>1</dim>
				</port>
				<port id="65" precision="FP32">
					<dim>1</dim>
					<dim>60</dim>
					<dim>1</dim>
					<dim>1</dim>
				</port>
				<port id="66" precision="FP32">
					<dim>1</dim>
					<dim>60</dim>
					<dim>1</dim>
					<dim>1</dim>
				</port>
				<port id="67" precision="FP32">
					<dim>1</dim>
					<dim>60</dim>
					<dim>1</dim>
					<dim>1</dim>
				</port>
				<port id="68" precision="FP32">
					<dim>1</dim>
					<dim>60</dim>
					<dim>1</dim>
					<dim>1</dim>
				</port>
				<port id="69" precision="FP32">
					<dim>1</dim>
					<dim>60</dim>
					<dim>1</dim>
					<dim>1</dim>
				</port>
			</input>
			<output>
				<port id="70" names="raw_predicts" precision="FP32">
					<dim>1</dim>
					<dim>4200</dim>
					<dim>1</dim>
					<dim>1</dim>
				</port>
			</output>
		</layer>
		<layer id="436" name="408" type="Const" version="opset1">
			<data element_type="f32" offset="13908536" shape="256, 4200, 1, 1" size="4300800"/>
			<output>
				<port id="0" precision="FP32">
					<dim>256</dim>
					<dim>4200</dim>
					<dim>1</dim>
					<dim>1</dim>
				</port>
			</output>
		</layer>
		<layer id="437" name="align_fc1_new/WithoutBiases" type="Convolution" version="opset1">
			<data auto_pad="explicit" dilations="1, 1" pads_begin="0, 0" pads_end="0, 0" strides="1, 1"/>
			<input>
				<port id="0" precision="FP32">
					<dim>1</dim>
					<dim>4200</dim>
					<dim>1</dim>
					<dim>1</dim>
				</port>
				<port id="1" precision="FP32">
					<dim>256</dim>
					<dim>4200</dim>
					<dim>1</dim>
					<dim>1</dim>
				</port>
			</input>
			<output>
				<port id="2" precision="FP32">
					<dim>1</dim>
					<dim>256</dim>
					<dim>1</dim>
					<dim>1</dim>
				</port>
			</output>
		</layer>
		<layer id="438" name="align_fc1_new/Dims4855" type="Const" version="opset1">
			<data element_type="f32" offset="18209336" shape="1, 256, 1, 1" size="1024"/>
			<output>
				<port id="0" precision="FP32">
					<dim>1</dim>
					<dim>256</dim>
					<dim>1</dim>
					<dim>1</dim>
				</port>
			</output>
		</layer>
		<layer id="439" name="align_fc1_new" type="Add" version="opset1">
			<data auto_broadcast="numpy"/>
			<input>
				<port id="0" precision="FP32">
					<dim>1</dim>
					<dim>256</dim>
					<dim>1</dim>
					<dim>1</dim>
				</port>
				<port id="1" precision="FP32">
					<dim>1</dim>
					<dim>256</dim>
					<dim>1</dim>
					<dim>1</dim>
				</port>
			</input>
			<output>
				<port id="2" names="align_fc1_new" precision="FP32">
					<dim>1</dim>
					<dim>256</dim>
					<dim>1</dim>
					<dim>1</dim>
				</port>
			</output>
		</layer>
		<layer id="440" name="relu_align1" type="ReLU" version="opset1">
			<input>
				<port id="0" precision="FP32">
					<dim>1</dim>
					<dim>256</dim>
					<dim>1</dim>
					<dim>1</dim>
				</port>
			</input>
			<output>
				<port id="1" names="align_fc1_new" precision="FP32">
					<dim>1</dim>
					<dim>256</dim>
					<dim>1</dim>
					<dim>1</dim>
				</port>
			</output>
		</layer>
		<layer id="441" name="data_mul_76067610" type="Const" version="opset1">
			<data element_type="f32" offset="18210360" shape="1, 256, 1, 1" size="1024"/>
			<output>
				<port id="0" precision="FP32">
					<dim>1</dim>
					<dim>256</dim>
					<dim>1</dim>
					<dim>1</dim>
				</port>
			</output>
		</layer>
		<layer id="442" name="bn/align_fc1/mean/Fused_Mul_" type="Multiply" version="opset1">
			<data auto_broadcast="numpy"/>
			<input>
				<port id="0" precision="FP32">
					<dim>1</dim>
					<dim>256</dim>
					<dim>1</dim>
					<dim>1</dim>
				</port>
				<port id="1" precision="FP32">
					<dim>1</dim>
					<dim>256</dim>
					<dim>1</dim>
					<dim>1</dim>
				</port>
			</input>
			<output>
				<port id="2" precision="FP32">
					<dim>1</dim>
					<dim>256</dim>
					<dim>1</dim>
					<dim>1</dim>
				</port>
			</output>
		</layer>
		<layer id="443" name="data_add_76077612" type="Const" version="opset1">
			<data element_type="f32" offset="18211384" shape="1, 256, 1, 1" size="1024"/>
			<output>
				<port id="0" precision="FP32">
					<dim>1</dim>
					<dim>256</dim>
					<dim>1</dim>
					<dim>1</dim>
				</port>
			</output>
		</layer>
		<layer id="444" name="bn/align_fc1/variance/Fused_Add_" type="Add" version="opset1">
			<data auto_broadcast="numpy"/>
			<input>
				<port id="0" precision="FP32">
					<dim>1</dim>
					<dim>256</dim>
					<dim>1</dim>
					<dim>1</dim>
				</port>
				<port id="1" precision="FP32">
					<dim>1</dim>
					<dim>256</dim>
					<dim>1</dim>
					<dim>1</dim>
				</port>
			</input>
			<output>
				<port id="2" names="bn/align_fc1" precision="FP32">
					<dim>1</dim>
					<dim>256</dim>
					<dim>1</dim>
					<dim>1</dim>
				</port>
			</output>
		</layer>
		<layer id="445" name="324" type="Const" version="opset1">
			<data element_type="f32" offset="18212408" shape="128, 256, 1, 1" size="131072"/>
			<output>
				<port id="0" precision="FP32">
					<dim>128</dim>
					<dim>256</dim>
					<dim>1</dim>
					<dim>1</dim>
				</port>
			</output>
		</layer>
		<layer id="446" name="align_fc2_new/WithoutBiases" type="Convolution" version="opset1">
			<data auto_pad="explicit" dilations="1, 1" pads_begin="0, 0" pads_end="0, 0" strides="1, 1"/>
			<input>
				<port id="0" precision="FP32">
					<dim>1</dim>
					<dim>256</dim>
					<dim>1</dim>
					<dim>1</dim>
				</port>
				<port id="1" precision="FP32">
					<dim>128</dim>
					<dim>256</dim>
					<dim>1</dim>
					<dim>1</dim>
				</port>
			</input>
			<output>
				<port id="2" precision="FP32">
					<dim>1</dim>
					<dim>128</dim>
					<dim>1</dim>
					<dim>1</dim>
				</port>
			</output>
		</layer>
		<layer id="447" name="align_fc2_new/Dims4819" type="Const" version="opset1">
			<data element_type="f32" offset="18343480" shape="1, 128, 1, 1" size="512"/>
			<output>
				<port id="0" precision="FP32">
					<dim>1</dim>
					<dim>128</dim>
					<dim>1</dim>
					<dim>1</dim>
				</port>
			</output>
		</layer>
		<layer id="448" name="align_fc2_new" type="Add" version="opset1">
			<data auto_broadcast="numpy"/>
			<input>
				<port id="0" precision="FP32">
					<dim>1</dim>
					<dim>128</dim>
					<dim>1</dim>
					<dim>1</dim>
				</port>
				<port id="1" precision="FP32">
					<dim>1</dim>
					<dim>128</dim>
					<dim>1</dim>
					<dim>1</dim>
				</port>
			</input>
			<output>
				<port id="2" names="align_fc2_new" precision="FP32">
					<dim>1</dim>
					<dim>128</dim>
					<dim>1</dim>
					<dim>1</dim>
				</port>
			</output>
		</layer>
		<layer id="449" name="relu_align2" type="ReLU" version="opset1">
			<input>
				<port id="0" precision="FP32">
					<dim>1</dim>
					<dim>128</dim>
					<dim>1</dim>
					<dim>1</dim>
				</port>
			</input>
			<output>
				<port id="1" names="align_fc2_new" precision="FP32">
					<dim>1</dim>
					<dim>128</dim>
					<dim>1</dim>
					<dim>1</dim>
				</port>
			</output>
		</layer>
		<layer id="450" name="data_mul_76147618" type="Const" version="opset1">
			<data element_type="f32" offset="18343992" shape="1, 128, 1, 1" size="512"/>
			<output>
				<port id="0" precision="FP32">
					<dim>1</dim>
					<dim>128</dim>
					<dim>1</dim>
					<dim>1</dim>
				</port>
			</output>
		</layer>
		<layer id="451" name="bn/align_fc2/mean/Fused_Mul_" type="Multiply" version="opset1">
			<data auto_broadcast="numpy"/>
			<input>
				<port id="0" precision="FP32">
					<dim>1</dim>
					<dim>128</dim>
					<dim>1</dim>
					<dim>1</dim>
				</port>
				<port id="1" precision="FP32">
					<dim>1</dim>
					<dim>128</dim>
					<dim>1</dim>
					<dim>1</dim>
				</port>
			</input>
			<output>
				<port id="2" precision="FP32">
					<dim>1</dim>
					<dim>128</dim>
					<dim>1</dim>
					<dim>1</dim>
				</port>
			</output>
		</layer>
		<layer id="452" name="data_add_76157620" type="Const" version="opset1">
			<data element_type="f32" offset="18344504" shape="1, 128, 1, 1" size="512"/>
			<output>
				<port id="0" precision="FP32">
					<dim>1</dim>
					<dim>128</dim>
					<dim>1</dim>
					<dim>1</dim>
				</port>
			</output>
		</layer>
		<layer id="453" name="bn/align_fc2/variance/Fused_Add_" type="Add" version="opset1">
			<data auto_broadcast="numpy"/>
			<input>
				<port id="0" precision="FP32">
					<dim>1</dim>
					<dim>128</dim>
					<dim>1</dim>
					<dim>1</dim>
				</port>
				<port id="1" precision="FP32">
					<dim>1</dim>
					<dim>128</dim>
					<dim>1</dim>
					<dim>1</dim>
				</port>
			</input>
			<output>
				<port id="2" names="bn/align_fc2" precision="FP32">
					<dim>1</dim>
					<dim>128</dim>
					<dim>1</dim>
					<dim>1</dim>
				</port>
			</output>
		</layer>
		<layer id="454" name="260" type="Const" version="opset1">
			<data element_type="f32" offset="18345016" shape="70, 128, 1, 1" size="35840"/>
			<output>
				<port id="0" precision="FP32">
					<dim>70</dim>
					<dim>128</dim>
					<dim>1</dim>
					<dim>1</dim>
				</port>
			</output>
		</layer>
		<layer id="455" name="align_fc3_new/WithoutBiases" type="Convolution" version="opset1">
			<data auto_pad="explicit" dilations="1, 1" pads_begin="0, 0" pads_end="0, 0" strides="1, 1"/>
			<input>
				<port id="0" precision="FP32">
					<dim>1</dim>
					<dim>128</dim>
					<dim>1</dim>
					<dim>1</dim>
				</port>
				<port id="1" precision="FP32">
					<dim>70</dim>
					<dim>128</dim>
					<dim>1</dim>
					<dim>1</dim>
				</port>
			</input>
			<output>
				<port id="2" precision="FP32">
					<dim>1</dim>
					<dim>70</dim>
					<dim>1</dim>
					<dim>1</dim>
				</port>
			</output>
		</layer>
		<layer id="456" name="align_fc3_new/Dims4789" type="Const" version="opset1">
			<data element_type="f32" offset="18380856" shape="1, 70, 1, 1" size="280"/>
			<output>
				<port id="0" precision="FP32">
					<dim>1</dim>
					<dim>70</dim>
					<dim>1</dim>
					<dim>1</dim>
				</port>
			</output>
		</layer>
		<layer id="457" name="align_fc3_new" type="Add" version="opset1">
			<data auto_broadcast="numpy"/>
			<input>
				<port id="0" precision="FP32">
					<dim>1</dim>
					<dim>70</dim>
					<dim>1</dim>
					<dim>1</dim>
				</port>
				<port id="1" precision="FP32">
					<dim>1</dim>
					<dim>70</dim>
					<dim>1</dim>
					<dim>1</dim>
				</port>
			</input>
			<output>
				<port id="2" names="align_fc3_new" precision="FP32">
					<dim>1</dim>
					<dim>70</dim>
					<dim>1</dim>
					<dim>1</dim>
				</port>
			</output>
		</layer>
		<layer id="458" name="446/shapes_concat" type="Const" version="opset1">
			<data element_type="i64" offset="18381136" shape="2" size="16"/>
			<output>
				<port id="0" precision="I64">
					<dim>2</dim>
				</port>
			</output>
		</layer>
		<layer id="459" name="align_fc3" type="Reshape" version="opset1">
			<data special_zero="true"/>
			<input>
				<port id="0" precision="FP32">
					<dim>1</dim>
					<dim>70</dim>
					<dim>1</dim>
					<dim>1</dim>
				</port>
				<port id="1" precision="I64">
					<dim>2</dim>
				</port>
			</input>
			<output>
				<port id="2" names="align_fc3" precision="FP32">
					<dim>1</dim>
					<dim>70</dim>
				</port>
			</output>
		</layer>
		<layer id="460" name="align_fc3/sink_port_0" type="Result" version="opset1">
			<input>
				<port id="0" precision="FP32">
					<dim>1</dim>
					<dim>70</dim>
				</port>
			</input>
		</layer>
	</layers>
	<edges>
		<edge from-layer="0" from-port="0" to-layer="2" to-port="0"/>
		<edge from-layer="1" from-port="0" to-layer="2" to-port="1"/>
		<edge from-layer="2" from-port="2" to-layer="4" to-port="0"/>
		<edge from-layer="3" from-port="0" to-layer="4" to-port="1"/>
		<edge from-layer="4" from-port="2" to-layer="6" to-port="0"/>
		<edge from-layer="5" from-port="0" to-layer="6" to-port="1"/>
		<edge from-layer="6" from-port="2" to-layer="8" to-port="0"/>
		<edge from-layer="7" from-port="0" to-layer="8" to-port="1"/>
		<edge from-layer="8" from-port="2" to-layer="9" to-port="0"/>
		<edge from-layer="9" from-port="1" to-layer="11" to-port="0"/>
		<edge from-layer="10" from-port="0" to-layer="11" to-port="1"/>
		<edge from-layer="11" from-port="2" to-layer="13" to-port="0"/>
		<edge from-layer="12" from-port="0" to-layer="13" to-port="1"/>
		<edge from-layer="13" from-port="2" to-layer="15" to-port="0"/>
		<edge from-layer="14" from-port="0" to-layer="15" to-port="1"/>
		<edge from-layer="15" from-port="2" to-layer="17" to-port="0"/>
		<edge from-layer="16" from-port="0" to-layer="17" to-port="1"/>
		<edge from-layer="17" from-port="2" to-layer="18" to-port="0"/>
		<edge from-layer="18" from-port="1" to-layer="20" to-port="0"/>
		<edge from-layer="19" from-port="0" to-layer="20" to-port="1"/>
		<edge from-layer="20" from-port="2" to-layer="22" to-port="0"/>
		<edge from-layer="21" from-port="0" to-layer="22" to-port="1"/>
		<edge from-layer="22" from-port="2" to-layer="24" to-port="0"/>
		<edge from-layer="23" from-port="0" to-layer="24" to-port="1"/>
		<edge from-layer="24" from-port="2" to-layer="26" to-port="0"/>
		<edge from-layer="25" from-port="0" to-layer="26" to-port="1"/>
		<edge from-layer="26" from-port="2" to-layer="27" to-port="0"/>
		<edge from-layer="27" from-port="1" to-layer="29" to-port="0"/>
		<edge from-layer="28" from-port="0" to-layer="29" to-port="1"/>
		<edge from-layer="29" from-port="2" to-layer="31" to-port="0"/>
		<edge from-layer="30" from-port="0" to-layer="31" to-port="1"/>
		<edge from-layer="31" from-port="2" to-layer="33" to-port="0"/>
		<edge from-layer="32" from-port="0" to-layer="33" to-port="1"/>
		<edge from-layer="33" from-port="2" to-layer="35" to-port="0"/>
		<edge from-layer="34" from-port="0" to-layer="35" to-port="1"/>
		<edge from-layer="35" from-port="2" to-layer="36" to-port="0"/>
		<edge from-layer="36" from-port="1" to-layer="38" to-port="0"/>
		<edge from-layer="37" from-port="0" to-layer="38" to-port="1"/>
		<edge from-layer="38" from-port="2" to-layer="40" to-port="0"/>
		<edge from-layer="39" from-port="0" to-layer="40" to-port="1"/>
		<edge from-layer="40" from-port="2" to-layer="42" to-port="0"/>
		<edge from-layer="41" from-port="0" to-layer="42" to-port="1"/>
		<edge from-layer="42" from-port="2" to-layer="44" to-port="0"/>
		<edge from-layer="43" from-port="0" to-layer="44" to-port="1"/>
		<edge from-layer="44" from-port="2" to-layer="45" to-port="0"/>
		<edge from-layer="45" from-port="1" to-layer="47" to-port="0"/>
		<edge from-layer="46" from-port="0" to-layer="47" to-port="1"/>
		<edge from-layer="47" from-port="2" to-layer="49" to-port="0"/>
		<edge from-layer="48" from-port="0" to-layer="49" to-port="1"/>
		<edge from-layer="49" from-port="2" to-layer="226" to-port="0"/>
		<edge from-layer="49" from-port="2" to-layer="261" to-port="0"/>
		<edge from-layer="49" from-port="2" to-layer="191" to-port="0"/>
		<edge from-layer="49" from-port="2" to-layer="146" to-port="0"/>
		<edge from-layer="49" from-port="2" to-layer="101" to-port="0"/>
		<edge from-layer="49" from-port="2" to-layer="76" to-port="0"/>
		<edge from-layer="49" from-port="2" to-layer="51" to-port="0"/>
		<edge from-layer="50" from-port="0" to-layer="51" to-port="1"/>
		<edge from-layer="51" from-port="2" to-layer="53" to-port="0"/>
		<edge from-layer="52" from-port="0" to-layer="53" to-port="1"/>
		<edge from-layer="53" from-port="2" to-layer="54" to-port="0"/>
		<edge from-layer="54" from-port="1" to-layer="61" to-port="0"/>
		<edge from-layer="54" from-port="1" to-layer="56" to-port="0"/>
		<edge from-layer="54" from-port="1" to-layer="66" to-port="0"/>
		<edge from-layer="54" from-port="1" to-layer="71" to-port="0"/>
		<edge from-layer="55" from-port="0" to-layer="56" to-port="1"/>
		<edge from-layer="56" from-port="2" to-layer="58" to-port="0"/>
		<edge from-layer="57" from-port="0" to-layer="58" to-port="1"/>
		<edge from-layer="58" from-port="2" to-layer="59" to-port="0"/>
		<edge from-layer="59" from-port="1" to-layer="435" to-port="0"/>
		<edge from-layer="60" from-port="0" to-layer="61" to-port="1"/>
		<edge from-layer="61" from-port="2" to-layer="63" to-port="0"/>
		<edge from-layer="62" from-port="0" to-layer="63" to-port="1"/>
		<edge from-layer="63" from-port="2" to-layer="64" to-port="0"/>
		<edge from-layer="64" from-port="1" to-layer="435" to-port="1"/>
		<edge from-layer="65" from-port="0" to-layer="66" to-port="1"/>
		<edge from-layer="66" from-port="2" to-layer="68" to-port="0"/>
		<edge from-layer="67" from-port="0" to-layer="68" to-port="1"/>
		<edge from-layer="68" from-port="2" to-layer="69" to-port="0"/>
		<edge from-layer="69" from-port="1" to-layer="435" to-port="2"/>
		<edge from-layer="70" from-port="0" to-layer="71" to-port="1"/>
		<edge from-layer="71" from-port="2" to-layer="73" to-port="0"/>
		<edge from-layer="72" from-port="0" to-layer="73" to-port="1"/>
		<edge from-layer="73" from-port="2" to-layer="74" to-port="0"/>
		<edge from-layer="74" from-port="1" to-layer="435" to-port="3"/>
		<edge from-layer="75" from-port="0" to-layer="76" to-port="1"/>
		<edge from-layer="76" from-port="2" to-layer="78" to-port="0"/>
		<edge from-layer="77" from-port="0" to-layer="78" to-port="1"/>
		<edge from-layer="78" from-port="2" to-layer="79" to-port="0"/>
		<edge from-layer="79" from-port="1" to-layer="86" to-port="0"/>
		<edge from-layer="79" from-port="1" to-layer="91" to-port="0"/>
		<edge from-layer="79" from-port="1" to-layer="81" to-port="0"/>
		<edge from-layer="79" from-port="1" to-layer="96" to-port="0"/>
		<edge from-layer="80" from-port="0" to-layer="81" to-port="1"/>
		<edge from-layer="81" from-port="2" to-layer="83" to-port="0"/>
		<edge from-layer="82" from-port="0" to-layer="83" to-port="1"/>
		<edge from-layer="83" from-port="2" to-layer="84" to-port="0"/>
		<edge from-layer="84" from-port="1" to-layer="435" to-port="4"/>
		<edge from-layer="85" from-port="0" to-layer="86" to-port="1"/>
		<edge from-layer="86" from-port="2" to-layer="88" to-port="0"/>
		<edge from-layer="87" from-port="0" to-layer="88" to-port="1"/>
		<edge from-layer="88" from-port="2" to-layer="89" to-port="0"/>
		<edge from-layer="89" from-port="1" to-layer="435" to-port="5"/>
		<edge from-layer="90" from-port="0" to-layer="91" to-port="1"/>
		<edge from-layer="91" from-port="2" to-layer="93" to-port="0"/>
		<edge from-layer="92" from-port="0" to-layer="93" to-port="1"/>
		<edge from-layer="93" from-port="2" to-layer="94" to-port="0"/>
		<edge from-layer="94" from-port="1" to-layer="435" to-port="6"/>
		<edge from-layer="95" from-port="0" to-layer="96" to-port="1"/>
		<edge from-layer="96" from-port="2" to-layer="98" to-port="0"/>
		<edge from-layer="97" from-port="0" to-layer="98" to-port="1"/>
		<edge from-layer="98" from-port="2" to-layer="99" to-port="0"/>
		<edge from-layer="99" from-port="1" to-layer="435" to-port="7"/>
		<edge from-layer="100" from-port="0" to-layer="101" to-port="1"/>
		<edge from-layer="101" from-port="2" to-layer="103" to-port="0"/>
		<edge from-layer="102" from-port="0" to-layer="103" to-port="1"/>
		<edge from-layer="103" from-port="2" to-layer="104" to-port="0"/>
		<edge from-layer="104" from-port="1" to-layer="136" to-port="0"/>
		<edge from-layer="104" from-port="1" to-layer="141" to-port="0"/>
		<edge from-layer="104" from-port="1" to-layer="121" to-port="0"/>
		<edge from-layer="104" from-port="1" to-layer="106" to-port="0"/>
		<edge from-layer="104" from-port="1" to-layer="111" to-port="0"/>
		<edge from-layer="104" from-port="1" to-layer="116" to-port="0"/>
		<edge from-layer="104" from-port="1" to-layer="131" to-port="0"/>
		<edge from-layer="104" from-port="1" to-layer="126" to-port="0"/>
		<edge from-layer="105" from-port="0" to-layer="106" to-port="1"/>
		<edge from-layer="106" from-port="2" to-layer="108" to-port="0"/>
		<edge from-layer="107" from-port="0" to-layer="108" to-port="1"/>
		<edge from-layer="108" from-port="2" to-layer="109" to-port="0"/>
		<edge from-layer="109" from-port="1" to-layer="435" to-port="8"/>
		<edge from-layer="110" from-port="0" to-layer="111" to-port="1"/>
		<edge from-layer="111" from-port="2" to-layer="113" to-port="0"/>
		<edge from-layer="112" from-port="0" to-layer="113" to-port="1"/>
		<edge from-layer="113" from-port="2" to-layer="114" to-port="0"/>
		<edge from-layer="114" from-port="1" to-layer="435" to-port="9"/>
		<edge from-layer="115" from-port="0" to-layer="116" to-port="1"/>
		<edge from-layer="116" from-port="2" to-layer="118" to-port="0"/>
		<edge from-layer="117" from-port="0" to-layer="118" to-port="1"/>
		<edge from-layer="118" from-port="2" to-layer="119" to-port="0"/>
		<edge from-layer="119" from-port="1" to-layer="435" to-port="10"/>
		<edge from-layer="120" from-port="0" to-layer="121" to-port="1"/>
		<edge from-layer="121" from-port="2" to-layer="123" to-port="0"/>
		<edge from-layer="122" from-port="0" to-layer="123" to-port="1"/>
		<edge from-layer="123" from-port="2" to-layer="124" to-port="0"/>
		<edge from-layer="124" from-port="1" to-layer="435" to-port="11"/>
		<edge from-layer="125" from-port="0" to-layer="126" to-port="1"/>
		<edge from-layer="126" from-port="2" to-layer="128" to-port="0"/>
		<edge from-layer="127" from-port="0" to-layer="128" to-port="1"/>
		<edge from-layer="128" from-port="2" to-layer="129" to-port="0"/>
		<edge from-layer="129" from-port="1" to-layer="435" to-port="12"/>
		<edge from-layer="130" from-port="0" to-layer="131" to-port="1"/>
		<edge from-layer="131" from-port="2" to-layer="133" to-port="0"/>
		<edge from-layer="132" from-port="0" to-layer="133" to-port="1"/>
		<edge from-layer="133" from-port="2" to-layer="134" to-port="0"/>
		<edge from-layer="134" from-port="1" to-layer="435" to-port="13"/>
		<edge from-layer="135" from-port="0" to-layer="136" to-port="1"/>
		<edge from-layer="136" from-port="2" to-layer="138" to-port="0"/>
		<edge from-layer="137" from-port="0" to-layer="138" to-port="1"/>
		<edge from-layer="138" from-port="2" to-layer="139" to-port="0"/>
		<edge from-layer="139" from-port="1" to-layer="435" to-port="14"/>
		<edge from-layer="140" from-port="0" to-layer="141" to-port="1"/>
		<edge from-layer="141" from-port="2" to-layer="143" to-port="0"/>
		<edge from-layer="142" from-port="0" to-layer="143" to-port="1"/>
		<edge from-layer="143" from-port="2" to-layer="144" to-port="0"/>
		<edge from-layer="144" from-port="1" to-layer="435" to-port="15"/>
		<edge from-layer="145" from-port="0" to-layer="146" to-port="1"/>
		<edge from-layer="146" from-port="2" to-layer="148" to-port="0"/>
		<edge from-layer="147" from-port="0" to-layer="148" to-port="1"/>
		<edge from-layer="148" from-port="2" to-layer="149" to-port="0"/>
		<edge from-layer="149" from-port="1" to-layer="176" to-port="0"/>
		<edge from-layer="149" from-port="1" to-layer="186" to-port="0"/>
		<edge from-layer="149" from-port="1" to-layer="166" to-port="0"/>
		<edge from-layer="149" from-port="1" to-layer="181" to-port="0"/>
		<edge from-layer="149" from-port="1" to-layer="171" to-port="0"/>
		<edge from-layer="149" from-port="1" to-layer="161" to-port="0"/>
		<edge from-layer="149" from-port="1" to-layer="156" to-port="0"/>
		<edge from-layer="149" from-port="1" to-layer="151" to-port="0"/>
		<edge from-layer="150" from-port="0" to-layer="151" to-port="1"/>
		<edge from-layer="151" from-port="2" to-layer="153" to-port="0"/>
		<edge from-layer="152" from-port="0" to-layer="153" to-port="1"/>
		<edge from-layer="153" from-port="2" to-layer="154" to-port="0"/>
		<edge from-layer="154" from-port="1" to-layer="435" to-port="16"/>
		<edge from-layer="155" from-port="0" to-layer="156" to-port="1"/>
		<edge from-layer="156" from-port="2" to-layer="158" to-port="0"/>
		<edge from-layer="157" from-port="0" to-layer="158" to-port="1"/>
		<edge from-layer="158" from-port="2" to-layer="159" to-port="0"/>
		<edge from-layer="159" from-port="1" to-layer="435" to-port="17"/>
		<edge from-layer="160" from-port="0" to-layer="161" to-port="1"/>
		<edge from-layer="161" from-port="2" to-layer="163" to-port="0"/>
		<edge from-layer="162" from-port="0" to-layer="163" to-port="1"/>
		<edge from-layer="163" from-port="2" to-layer="164" to-port="0"/>
		<edge from-layer="164" from-port="1" to-layer="435" to-port="18"/>
		<edge from-layer="165" from-port="0" to-layer="166" to-port="1"/>
		<edge from-layer="166" from-port="2" to-layer="168" to-port="0"/>
		<edge from-layer="167" from-port="0" to-layer="168" to-port="1"/>
		<edge from-layer="168" from-port="2" to-layer="169" to-port="0"/>
		<edge from-layer="169" from-port="1" to-layer="435" to-port="19"/>
		<edge from-layer="170" from-port="0" to-layer="171" to-port="1"/>
		<edge from-layer="171" from-port="2" to-layer="173" to-port="0"/>
		<edge from-layer="172" from-port="0" to-layer="173" to-port="1"/>
		<edge from-layer="173" from-port="2" to-layer="174" to-port="0"/>
		<edge from-layer="174" from-port="1" to-layer="435" to-port="20"/>
		<edge from-layer="175" from-port="0" to-layer="176" to-port="1"/>
		<edge from-layer="176" from-port="2" to-layer="178" to-port="0"/>
		<edge from-layer="177" from-port="0" to-layer="178" to-port="1"/>
		<edge from-layer="178" from-port="2" to-layer="179" to-port="0"/>
		<edge from-layer="179" from-port="1" to-layer="435" to-port="21"/>
		<edge from-layer="180" from-port="0" to-layer="181" to-port="1"/>
		<edge from-layer="181" from-port="2" to-layer="183" to-port="0"/>
		<edge from-layer="182" from-port="0" to-layer="183" to-port="1"/>
		<edge from-layer="183" from-port="2" to-layer="184" to-port="0"/>
		<edge from-layer="184" from-port="1" to-layer="435" to-port="22"/>
		<edge from-layer="185" from-port="0" to-layer="186" to-port="1"/>
		<edge from-layer="186" from-port="2" to-layer="188" to-port="0"/>
		<edge from-layer="187" from-port="0" to-layer="188" to-port="1"/>
		<edge from-layer="188" from-port="2" to-layer="189" to-port="0"/>
		<edge from-layer="189" from-port="1" to-layer="435" to-port="23"/>
		<edge from-layer="190" from-port="0" to-layer="191" to-port="1"/>
		<edge from-layer="191" from-port="2" to-layer="193" to-port="0"/>
		<edge from-layer="192" from-port="0" to-layer="193" to-port="1"/>
		<edge from-layer="193" from-port="2" to-layer="194" to-port="0"/>
		<edge from-layer="194" from-port="1" to-layer="216" to-port="0"/>
		<edge from-layer="194" from-port="1" to-layer="211" to-port="0"/>
		<edge from-layer="194" from-port="1" to-layer="206" to-port="0"/>
		<edge from-layer="194" from-port="1" to-layer="201" to-port="0"/>
		<edge from-layer="194" from-port="1" to-layer="196" to-port="0"/>
		<edge from-layer="194" from-port="1" to-layer="221" to-port="0"/>
		<edge from-layer="195" from-port="0" to-layer="196" to-port="1"/>
		<edge from-layer="196" from-port="2" to-layer="198" to-port="0"/>
		<edge from-layer="197" from-port="0" to-layer="198" to-port="1"/>
		<edge from-layer="198" from-port="2" to-layer="199" to-port="0"/>
		<edge from-layer="199" from-port="1" to-layer="435" to-port="24"/>
		<edge from-layer="200" from-port="0" to-layer="201" to-port="1"/>
		<edge from-layer="201" from-port="2" to-layer="203" to-port="0"/>
		<edge from-layer="202" from-port="0" to-layer="203" to-port="1"/>
		<edge from-layer="203" from-port="2" to-layer="204" to-port="0"/>
		<edge from-layer="204" from-port="1" to-layer="435" to-port="25"/>
		<edge from-layer="205" from-port="0" to-layer="206" to-port="1"/>
		<edge from-layer="206" from-port="2" to-layer="208" to-port="0"/>
		<edge from-layer="207" from-port="0" to-layer="208" to-port="1"/>
		<edge from-layer="208" from-port="2" to-layer="209" to-port="0"/>
		<edge from-layer="209" from-port="1" to-layer="435" to-port="26"/>
		<edge from-layer="210" from-port="0" to-layer="211" to-port="1"/>
		<edge from-layer="211" from-port="2" to-layer="213" to-port="0"/>
		<edge from-layer="212" from-port="0" to-layer="213" to-port="1"/>
		<edge from-layer="213" from-port="2" to-layer="214" to-port="0"/>
		<edge from-layer="214" from-port="1" to-layer="435" to-port="27"/>
		<edge from-layer="215" from-port="0" to-layer="216" to-port="1"/>
		<edge from-layer="216" from-port="2" to-layer="218" to-port="0"/>
		<edge from-layer="217" from-port="0" to-layer="218" to-port="1"/>
		<edge from-layer="218" from-port="2" to-layer="219" to-port="0"/>
		<edge from-layer="219" from-port="1" to-layer="435" to-port="28"/>
		<edge from-layer="220" from-port="0" to-layer="221" to-port="1"/>
		<edge from-layer="221" from-port="2" to-layer="223" to-port="0"/>
		<edge from-layer="222" from-port="0" to-layer="223" to-port="1"/>
		<edge from-layer="223" from-port="2" to-layer="224" to-port="0"/>
		<edge from-layer="224" from-port="1" to-layer="435" to-port="29"/>
		<edge from-layer="225" from-port="0" to-layer="226" to-port="1"/>
		<edge from-layer="226" from-port="2" to-layer="228" to-port="0"/>
		<edge from-layer="227" from-port="0" to-layer="228" to-port="1"/>
		<edge from-layer="228" from-port="2" to-layer="229" to-port="0"/>
		<edge from-layer="229" from-port="1" to-layer="236" to-port="0"/>
		<edge from-layer="229" from-port="1" to-layer="231" to-port="0"/>
		<edge from-layer="229" from-port="1" to-layer="251" to-port="0"/>
		<edge from-layer="229" from-port="1" to-layer="256" to-port="0"/>
		<edge from-layer="229" from-port="1" to-layer="241" to-port="0"/>
		<edge from-layer="229" from-port="1" to-layer="246" to-port="0"/>
		<edge from-layer="230" from-port="0" to-layer="231" to-port="1"/>
		<edge from-layer="231" from-port="2" to-layer="233" to-port="0"/>
		<edge from-layer="232" from-port="0" to-layer="233" to-port="1"/>
		<edge from-layer="233" from-port="2" to-layer="234" to-port="0"/>
		<edge from-layer="234" from-port="1" to-layer="435" to-port="30"/>
		<edge from-layer="235" from-port="0" to-layer="236" to-port="1"/>
		<edge from-layer="236" from-port="2" to-layer="238" to-port="0"/>
		<edge from-layer="237" from-port="0" to-layer="238" to-port="1"/>
		<edge from-layer="238" from-port="2" to-layer="239" to-port="0"/>
		<edge from-layer="239" from-port="1" to-layer="435" to-port="31"/>
		<edge from-layer="240" from-port="0" to-layer="241" to-port="1"/>
		<edge from-layer="241" from-port="2" to-layer="243" to-port="0"/>
		<edge from-layer="242" from-port="0" to-layer="243" to-port="1"/>
		<edge from-layer="243" from-port="2" to-layer="244" to-port="0"/>
		<edge from-layer="244" from-port="1" to-layer="435" to-port="32"/>
		<edge from-layer="245" from-port="0" to-layer="246" to-port="1"/>
		<edge from-layer="246" from-port="2" to-layer="248" to-port="0"/>
		<edge from-layer="247" from-port="0" to-layer="248" to-port="1"/>
		<edge from-layer="248" from-port="2" to-layer="249" to-port="0"/>
		<edge from-layer="249" from-port="1" to-layer="435" to-port="33"/>
		<edge from-layer="250" from-port="0" to-layer="251" to-port="1"/>
		<edge from-layer="251" from-port="2" to-layer="253" to-port="0"/>
		<edge from-layer="252" from-port="0" to-layer="253" to-port="1"/>
		<edge from-layer="253" from-port="2" to-layer="254" to-port="0"/>
		<edge from-layer="254" from-port="1" to-layer="435" to-port="34"/>
		<edge from-layer="255" from-port="0" to-layer="256" to-port="1"/>
		<edge from-layer="256" from-port="2" to-layer="258" to-port="0"/>
		<edge from-layer="257" from-port="0" to-layer="258" to-port="1"/>
		<edge from-layer="258" from-port="2" to-layer="259" to-port="0"/>
		<edge from-layer="259" from-port="1" to-layer="435" to-port="35"/>
		<edge from-layer="260" from-port="0" to-layer="261" to-port="1"/>
		<edge from-layer="261" from-port="2" to-layer="263" to-port="0"/>
		<edge from-layer="262" from-port="0" to-layer="263" to-port="1"/>
		<edge from-layer="263" from-port="2" to-layer="264" to-port="0"/>
		<edge from-layer="264" from-port="1" to-layer="376" to-port="0"/>
		<edge from-layer="264" from-port="1" to-layer="326" to-port="0"/>
		<edge from-layer="264" from-port="1" to-layer="371" to-port="0"/>
		<edge from-layer="264" from-port="1" to-layer="366" to-port="0"/>
		<edge from-layer="264" from-port="1" to-layer="361" to-port="0"/>
		<edge from-layer="264" from-port="1" to-layer="356" to-port="0"/>
		<edge from-layer="264" from-port="1" to-layer="351" to-port="0"/>
		<edge from-layer="264" from-port="1" to-layer="346" to-port="0"/>
		<edge from-layer="264" from-port="1" to-layer="341" to-port="0"/>
		<edge from-layer="264" from-port="1" to-layer="336" to-port="0"/>
		<edge from-layer="264" from-port="1" to-layer="331" to-port="0"/>
		<edge from-layer="264" from-port="1" to-layer="381" to-port="0"/>
		<edge from-layer="264" from-port="1" to-layer="386" to-port="0"/>
		<edge from-layer="264" from-port="1" to-layer="391" to-port="0"/>
		<edge from-layer="264" from-port="1" to-layer="396" to-port="0"/>
		<edge from-layer="264" from-port="1" to-layer="401" to-port="0"/>
		<edge from-layer="264" from-port="1" to-layer="406" to-port="0"/>
		<edge from-layer="264" from-port="1" to-layer="411" to-port="0"/>
		<edge from-layer="264" from-port="1" to-layer="416" to-port="0"/>
		<edge from-layer="264" from-port="1" to-layer="421" to-port="0"/>
		<edge from-layer="264" from-port="1" to-layer="426" to-port="0"/>
		<edge from-layer="264" from-port="1" to-layer="431" to-port="0"/>
		<edge from-layer="264" from-port="1" to-layer="266" to-port="0"/>
		<edge from-layer="264" from-port="1" to-layer="306" to-port="0"/>
		<edge from-layer="264" from-port="1" to-layer="291" to-port="0"/>
		<edge from-layer="264" from-port="1" to-layer="271" to-port="0"/>
		<edge from-layer="264" from-port="1" to-layer="321" to-port="0"/>
		<edge from-layer="264" from-port="1" to-layer="286" to-port="0"/>
		<edge from-layer="264" from-port="1" to-layer="276" to-port="0"/>
		<edge from-layer="264" from-port="1" to-layer="281" to-port="0"/>
		<edge from-layer="264" from-port="1" to-layer="296" to-port="0"/>
		<edge from-layer="264" from-port="1" to-layer="316" to-port="0"/>
		<edge from-layer="264" from-port="1" to-layer="311" to-port="0"/>
		<edge from-layer="264" from-port="1" to-layer="301" to-port="0"/>
		<edge from-layer="265" from-port="0" to-layer="266" to-port="1"/>
		<edge from-layer="266" from-port="2" to-layer="268" to-port="0"/>
		<edge from-layer="267" from-port="0" to-layer="268" to-port="1"/>
		<edge from-layer="268" from-port="2" to-layer="269" to-port="0"/>
		<edge from-layer="269" from-port="1" to-layer="435" to-port="36"/>
		<edge from-layer="270" from-port="0" to-layer="271" to-port="1"/>
		<edge from-layer="271" from-port="2" to-layer="273" to-port="0"/>
		<edge from-layer="272" from-port="0" to-layer="273" to-port="1"/>
		<edge from-layer="273" from-port="2" to-layer="274" to-port="0"/>
		<edge from-layer="274" from-port="1" to-layer="435" to-port="37"/>
		<edge from-layer="275" from-port="0" to-layer="276" to-port="1"/>
		<edge from-layer="276" from-port="2" to-layer="278" to-port="0"/>
		<edge from-layer="277" from-port="0" to-layer="278" to-port="1"/>
		<edge from-layer="278" from-port="2" to-layer="279" to-port="0"/>
		<edge from-layer="279" from-port="1" to-layer="435" to-port="38"/>
		<edge from-layer="280" from-port="0" to-layer="281" to-port="1"/>
		<edge from-layer="281" from-port="2" to-layer="283" to-port="0"/>
		<edge from-layer="282" from-port="0" to-layer="283" to-port="1"/>
		<edge from-layer="283" from-port="2" to-layer="284" to-port="0"/>
		<edge from-layer="284" from-port="1" to-layer="435" to-port="39"/>
		<edge from-layer="285" from-port="0" to-layer="286" to-port="1"/>
		<edge from-layer="286" from-port="2" to-layer="288" to-port="0"/>
		<edge from-layer="287" from-port="0" to-layer="288" to-port="1"/>
		<edge from-layer="288" from-port="2" to-layer="289" to-port="0"/>
		<edge from-layer="289" from-port="1" to-layer="435" to-port="40"/>
		<edge from-layer="290" from-port="0" to-layer="291" to-port="1"/>
		<edge from-layer="291" from-port="2" to-layer="293" to-port="0"/>
		<edge from-layer="292" from-port="0" to-layer="293" to-port="1"/>
		<edge from-layer="293" from-port="2" to-layer="294" to-port="0"/>
		<edge from-layer="294" from-port="1" to-layer="435" to-port="41"/>
		<edge from-layer="295" from-port="0" to-layer="296" to-port="1"/>
		<edge from-layer="296" from-port="2" to-layer="298" to-port="0"/>
		<edge from-layer="297" from-port="0" to-layer="298" to-port="1"/>
		<edge from-layer="298" from-port="2" to-layer="299" to-port="0"/>
		<edge from-layer="299" from-port="1" to-layer="435" to-port="42"/>
		<edge from-layer="300" from-port="0" to-layer="301" to-port="1"/>
		<edge from-layer="301" from-port="2" to-layer="303" to-port="0"/>
		<edge from-layer="302" from-port="0" to-layer="303" to-port="1"/>
		<edge from-layer="303" from-port="2" to-layer="304" to-port="0"/>
		<edge from-layer="304" from-port="1" to-layer="435" to-port="43"/>
		<edge from-layer="305" from-port="0" to-layer="306" to-port="1"/>
		<edge from-layer="306" from-port="2" to-layer="308" to-port="0"/>
		<edge from-layer="307" from-port="0" to-layer="308" to-port="1"/>
		<edge from-layer="308" from-port="2" to-layer="309" to-port="0"/>
		<edge from-layer="309" from-port="1" to-layer="435" to-port="44"/>
		<edge from-layer="310" from-port="0" to-layer="311" to-port="1"/>
		<edge from-layer="311" from-port="2" to-layer="313" to-port="0"/>
		<edge from-layer="312" from-port="0" to-layer="313" to-port="1"/>
		<edge from-layer="313" from-port="2" to-layer="314" to-port="0"/>
		<edge from-layer="314" from-port="1" to-layer="435" to-port="45"/>
		<edge from-layer="315" from-port="0" to-layer="316" to-port="1"/>
		<edge from-layer="316" from-port="2" to-layer="318" to-port="0"/>
		<edge from-layer="317" from-port="0" to-layer="318" to-port="1"/>
		<edge from-layer="318" from-port="2" to-layer="319" to-port="0"/>
		<edge from-layer="319" from-port="1" to-layer="435" to-port="46"/>
		<edge from-layer="320" from-port="0" to-layer="321" to-port="1"/>
		<edge from-layer="321" from-port="2" to-layer="323" to-port="0"/>
		<edge from-layer="322" from-port="0" to-layer="323" to-port="1"/>
		<edge from-layer="323" from-port="2" to-layer="324" to-port="0"/>
		<edge from-layer="324" from-port="1" to-layer="435" to-port="47"/>
		<edge from-layer="325" from-port="0" to-layer="326" to-port="1"/>
		<edge from-layer="326" from-port="2" to-layer="328" to-port="0"/>
		<edge from-layer="327" from-port="0" to-layer="328" to-port="1"/>
		<edge from-layer="328" from-port="2" to-layer="329" to-port="0"/>
		<edge from-layer="329" from-port="1" to-layer="435" to-port="48"/>
		<edge from-layer="330" from-port="0" to-layer="331" to-port="1"/>
		<edge from-layer="331" from-port="2" to-layer="333" to-port="0"/>
		<edge from-layer="332" from-port="0" to-layer="333" to-port="1"/>
		<edge from-layer="333" from-port="2" to-layer="334" to-port="0"/>
		<edge from-layer="334" from-port="1" to-layer="435" to-port="49"/>
		<edge from-layer="335" from-port="0" to-layer="336" to-port="1"/>
		<edge from-layer="336" from-port="2" to-layer="338" to-port="0"/>
		<edge from-layer="337" from-port="0" to-layer="338" to-port="1"/>
		<edge from-layer="338" from-port="2" to-layer="339" to-port="0"/>
		<edge from-layer="339" from-port="1" to-layer="435" to-port="50"/>
		<edge from-layer="340" from-port="0" to-layer="341" to-port="1"/>
		<edge from-layer="341" from-port="2" to-layer="343" to-port="0"/>
		<edge from-layer="342" from-port="0" to-layer="343" to-port="1"/>
		<edge from-layer="343" from-port="2" to-layer="344" to-port="0"/>
		<edge from-layer="344" from-port="1" to-layer="435" to-port="51"/>
		<edge from-layer="345" from-port="0" to-layer="346" to-port="1"/>
		<edge from-layer="346" from-port="2" to-layer="348" to-port="0"/>
		<edge from-layer="347" from-port="0" to-layer="348" to-port="1"/>
		<edge from-layer="348" from-port="2" to-layer="349" to-port="0"/>
		<edge from-layer="349" from-port="1" to-layer="435" to-port="52"/>
		<edge from-layer="350" from-port="0" to-layer="351" to-port="1"/>
		<edge from-layer="351" from-port="2" to-layer="353" to-port="0"/>
		<edge from-layer="352" from-port="0" to-layer="353" to-port="1"/>
		<edge from-layer="353" from-port="2" to-layer="354" to-port="0"/>
		<edge from-layer="354" from-port="1" to-layer="435" to-port="53"/>
		<edge from-layer="355" from-port="0" to-layer="356" to-port="1"/>
		<edge from-layer="356" from-port="2" to-layer="358" to-port="0"/>
		<edge from-layer="357" from-port="0" to-layer="358" to-port="1"/>
		<edge from-layer="358" from-port="2" to-layer="359" to-port="0"/>
		<edge from-layer="359" from-port="1" to-layer="435" to-port="54"/>
		<edge from-layer="360" from-port="0" to-layer="361" to-port="1"/>
		<edge from-layer="361" from-port="2" to-layer="363" to-port="0"/>
		<edge from-layer="362" from-port="0" to-layer="363" to-port="1"/>
		<edge from-layer="363" from-port="2" to-layer="364" to-port="0"/>
		<edge from-layer="364" from-port="1" to-layer="435" to-port="55"/>
		<edge from-layer="365" from-port="0" to-layer="366" to-port="1"/>
		<edge from-layer="366" from-port="2" to-layer="368" to-port="0"/>
		<edge from-layer="367" from-port="0" to-layer="368" to-port="1"/>
		<edge from-layer="368" from-port="2" to-layer="369" to-port="0"/>
		<edge from-layer="369" from-port="1" to-layer="435" to-port="56"/>
		<edge from-layer="370" from-port="0" to-layer="371" to-port="1"/>
		<edge from-layer="371" from-port="2" to-layer="373" to-port="0"/>
		<edge from-layer="372" from-port="0" to-layer="373" to-port="1"/>
		<edge from-layer="373" from-port="2" to-layer="374" to-port="0"/>
		<edge from-layer="374" from-port="1" to-layer="435" to-port="57"/>
		<edge from-layer="375" from-port="0" to-layer="376" to-port="1"/>
		<edge from-layer="376" from-port="2" to-layer="378" to-port="0"/>
		<edge from-layer="377" from-port="0" to-layer="378" to-port="1"/>
		<edge from-layer="378" from-port="2" to-layer="379" to-port="0"/>
		<edge from-layer="379" from-port="1" to-layer="435" to-port="58"/>
		<edge from-layer="380" from-port="0" to-layer="381" to-port="1"/>
		<edge from-layer="381" from-port="2" to-layer="383" to-port="0"/>
		<edge from-layer="382" from-port="0" to-layer="383" to-port="1"/>
		<edge from-layer="383" from-port="2" to-layer="384" to-port="0"/>
		<edge from-layer="384" from-port="1" to-layer="435" to-port="59"/>
		<edge from-layer="385" from-port="0" to-layer="386" to-port="1"/>
		<edge from-layer="386" from-port="2" to-layer="388" to-port="0"/>
		<edge from-layer="387" from-port="0" to-layer="388" to-port="1"/>
		<edge from-layer="388" from-port="2" to-layer="389" to-port="0"/>
		<edge from-layer="389" from-port="1" to-layer="435" to-port="60"/>
		<edge from-layer="390" from-port="0" to-layer="391" to-port="1"/>
		<edge from-layer="391" from-port="2" to-layer="393" to-port="0"/>
		<edge from-layer="392" from-port="0" to-layer="393" to-port="1"/>
		<edge from-layer="393" from-port="2" to-layer="394" to-port="0"/>
		<edge from-layer="394" from-port="1" to-layer="435" to-port="61"/>
		<edge from-layer="395" from-port="0" to-layer="396" to-port="1"/>
		<edge from-layer="396" from-port="2" to-layer="398" to-port="0"/>
		<edge from-layer="397" from-port="0" to-layer="398" to-port="1"/>
		<edge from-layer="398" from-port="2" to-layer="399" to-port="0"/>
		<edge from-layer="399" from-port="1" to-layer="435" to-port="62"/>
		<edge from-layer="400" from-port="0" to-layer="401" to-port="1"/>
		<edge from-layer="401" from-port="2" to-layer="403" to-port="0"/>
		<edge from-layer="402" from-port="0" to-layer="403" to-port="1"/>
		<edge from-layer="403" from-port="2" to-layer="404" to-port="0"/>
		<edge from-layer="404" from-port="1" to-layer="435" to-port="63"/>
		<edge from-layer="405" from-port="0" to-layer="406" to-port="1"/>
		<edge from-layer="406" from-port="2" to-layer="408" to-port="0"/>
		<edge from-layer="407" from-port="0" to-layer="408" to-port="1"/>
		<edge from-layer="408" from-port="2" to-layer="409" to-port="0"/>
		<edge from-layer="409" from-port="1" to-layer="435" to-port="64"/>
		<edge from-layer="410" from-port="0" to-layer="411" to-port="1"/>
		<edge from-layer="411" from-port="2" to-layer="413" to-port="0"/>
		<edge from-layer="412" from-port="0" to-layer="413" to-port="1"/>
		<edge from-layer="413" from-port="2" to-layer="414" to-port="0"/>
		<edge from-layer="414" from-port="1" to-layer="435" to-port="65"/>
		<edge from-layer="415" from-port="0" to-layer="416" to-port="1"/>
		<edge from-layer="416" from-port="2" to-layer="418" to-port="0"/>
		<edge from-layer="417" from-port="0" to-layer="418" to-port="1"/>
		<edge from-layer="418" from-port="2" to-layer="419" to-port="0"/>
		<edge from-layer="419" from-port="1" to-layer="435" to-port="66"/>
		<edge from-layer="420" from-port="0" to-layer="421" to-port="1"/>
		<edge from-layer="421" from-port="2" to-layer="423" to-port="0"/>
		<edge from-layer="422" from-port="0" to-layer="423" to-port="1"/>
		<edge from-layer="423" from-port="2" to-layer="424" to-port="0"/>
		<edge from-layer="424" from-port="1" to-layer="435" to-port="67"/>
		<edge from-layer="425" from-port="0" to-layer="426" to-port="1"/>
		<edge from-layer="426" from-port="2" to-layer="428" to-port="0"/>
		<edge from-layer="427" from-port="0" to-layer="428" to-port="1"/>
		<edge from-layer="428" from-port="2" to-layer="429" to-port="0"/>
		<edge from-layer="429" from-port="1" to-layer="435" to-port="68"/>
		<edge from-layer="430" from-port="0" to-layer="431" to-port="1"/>
		<edge from-layer="431" from-port="2" to-layer="433" to-port="0"/>
		<edge from-layer="432" from-port="0" to-layer="433" to-port="1"/>
		<edge from-layer="433" from-port="2" to-layer="434" to-port="0"/>
		<edge from-layer="434" from-port="1" to-layer="435" to-port="69"/>
		<edge from-layer="435" from-port="70" to-layer="437" to-port="0"/>
		<edge from-layer="436" from-port="0" to-layer="437" to-port="1"/>
		<edge from-layer="437" from-port="2" to-layer="439" to-port="0"/>
		<edge from-layer="438" from-port="0" to-layer="439" to-port="1"/>
		<edge from-layer="439" from-port="2" to-layer="440" to-port="0"/>
		<edge from-layer="440" from-port="1" to-layer="442" to-port="0"/>
		<edge from-layer="441" from-port="0" to-layer="442" to-port="1"/>
		<edge from-layer="442" from-port="2" to-layer="444" to-port="0"/>
		<edge from-layer="443" from-port="0" to-layer="444" to-port="1"/>
		<edge from-layer="444" from-port="2" to-layer="446" to-port="0"/>
		<edge from-layer="445" from-port="0" to-layer="446" to-port="1"/>
		<edge from-layer="446" from-port="2" to-layer="448" to-port="0"/>
		<edge from-layer="447" from-port="0" to-layer="448" to-port="1"/>
		<edge from-layer="448" from-port="2" to-layer="449" to-port="0"/>
		<edge from-layer="449" from-port="1" to-layer="451" to-port="0"/>
		<edge from-layer="450" from-port="0" to-layer="451" to-port="1"/>
		<edge from-layer="451" from-port="2" to-layer="453" to-port="0"/>
		<edge from-layer="452" from-port="0" to-layer="453" to-port="1"/>
		<edge from-layer="453" from-port="2" to-layer="455" to-port="0"/>
		<edge from-layer="454" from-port="0" to-layer="455" to-port="1"/>
		<edge from-layer="455" from-port="2" to-layer="457" to-port="0"/>
		<edge from-layer="456" from-port="0" to-layer="457" to-port="1"/>
		<edge from-layer="457" from-port="2" to-layer="459" to-port="0"/>
		<edge from-layer="458" from-port="0" to-layer="459" to-port="1"/>
		<edge from-layer="459" from-port="2" to-layer="460" to-port="0"/>
	</edges>
	<meta_data>
		<MO_version value="2021.4.0-3827-c5b65f2cb1d-releases/2021/4"/>
		<cli_parameters>
			<caffe_parser_path value="DIR"/>
			<data_type value="FP32"/>
			<disable_nhwc_to_nchw value="False"/>
			<disable_omitting_optional value="False"/>
			<disable_resnet_optimization value="False"/>
			<disable_weights_compression value="False"/>
			<enable_concat_optimization value="False"/>
			<enable_flattening_nested_params value="False"/>
			<enable_ssd_gluoncv value="False"/>
			<extensions value="DIR"/>
			<framework value="caffe"/>
			<freeze_placeholder_with_value value="{}"/>
			<generate_deprecated_IR_V7 value="False"/>
			<input value="data"/>
			<input_model value="DIR/facial-landmarks-35-adas-0002.caffemodel"/>
			<input_model_is_text value="False"/>
			<input_proto value="DIR/facial-landmarks-35-adas-0002.prototxt"/>
			<input_shape value="[1,3,60,60]"/>
			<k value="DIR/CustomLayersMapping.xml"/>
			<keep_shape_ops value="True"/>
			<legacy_ir_generation value="False"/>
			<legacy_mxnet_model value="False"/>
			<log_level value="ERROR"/>
			<mean_scale_values value="{'data': {'mean': array([120., 110., 104.]), 'scale': array([255.])}}"/>
			<mean_values value="data[120.0,110.0,104.0]"/>
			<model_name value="facial-landmarks-35-adas-0002"/>
			<output value="['align_fc3']"/>
			<output_dir value="DIR"/>
			<placeholder_data_types value="{}"/>
			<placeholder_shapes value="{'data': array([ 1,  3, 60, 60])}"/>
			<progress value="False"/>
			<remove_memory value="False"/>
			<remove_output_softmax value="False"/>
			<reverse_input_channels value="False"/>
			<save_params_from_nd value="False"/>
			<scale_values value="data[255.0]"/>
			<silent value="False"/>
			<static_shape value="False"/>
			<stream_output value="False"/>
			<transform value=""/>
			<unset unset_cli_parameters="batch, counts, disable_fusing, disable_gfusing, finegrain_fusing, input_checkpoint, input_meta_graph, input_symbol, mean_file, mean_file_offsets, move_to_preprocess, nd_prefix_name, pretrained_model_name, saved_model_dir, saved_model_tags, scale, tensorboard_logdir, tensorflow_custom_layer_libraries, tensorflow_custom_operations_config_update, tensorflow_object_detection_api_pipeline_config, tensorflow_use_custom_operations_config, transformations_config"/>
		</cli_parameters>
	</meta_data>
</net>
